AutogluonModels/performance_v1/models/NeuralNetFastAI/model-internals.pkl (torch, 274785 bytes, 16 tensors)

weight f4 [114]
00000000: 159f da3e 3f0a 823f 8fc0 193f 2c7d 763f
00000010: 10dc f83e 5e25 1f3f 25b5 423f 9046 5b3f
00000020: 604b 9b3f 7256 0b3f 3925 663f 9874 373f
00000030: 60e2 0d3f c73b 1f3f da7b 763f 8a0f 743f
00000040: 8e5b 013f e090 963f f5d0 5b3f 05bf 243f
00000050: bcdd 803f bbaf 1c3f 4e4f 633f 5fc8 5a3f
00000060: b67c 783f a3e8 213f 1cbd 693f 96b2 1a3f
00000070: 8429 7a3f eccf 4f3f 777a 1d3f d73c 863f
00000080: b72d 503f 689a 393f ecbb 373f 154d 963f
00000090: e677 643f cd25 453f ea95 aa3f 17d7 093f
000000a0: ee6d 8f3f 649b 823f 2731 573f 61d4 853f
000000b0: e229 303f 83e3 9a3f 6009 913f 8595 863f
000000c0: f0af 793f 8680 5c3f c50c b53f aaa3 683f
000000d0: 163b e03f ce66 923f 85d6 823f a242 a43f
000000e0: 8c29 4c3f 0edb 493f 61c8 ba3e ebd8 7a3f
000000f0: 0565 5a3f b8c2 a13e f84d 083f ba5b 643f
00000100: cb47 7d3f 6751 b03e 2f73 6f3f 15ee 873f
00000110: f5d3 4c3f 7f33 433f 2821 7b3f 8861 7f3f
00000120: 3c44 543f 083f a03f b69b 903f 6ae7 423f
00000130: fa9c 393f ad10 393f 812b 543f fdb6 4f3f
00000140: fb6c 803f f6bb 943f bc9e 3f3f 67af 393f
00000150: aa54 8c3f dd46 823f bfa9 1a3f 2a37 b13f
00000160: aee9 613f 4b55 053f 2c0e 3d3f 3b04 943f
00000170: c1e5 743f f6e3 553f db28 ad3f 3e45 8b3f
00000180: e037 3a3f b3a0 4f3f b5a1 9c3f 9fe8 a43f
00000190: 545f 2f3f 4095 d13f f4e4 9f3f c9ad 8d3f
000001a0: 6f53 8b3f 5183 aa3f 7cf3 a23f 4c45 793f
000001b0: 643e be3f 04d5 a73f 8842 873f 3814 9e3f
000001c0: 9ab8 b13f f3bf aa3f
0.42699495 1.0159377 0.60059446 0.9628475 0.48605394 0.6216639 0.76057655 0.85654545
1.2132378 0.5442878 0.8990055 0.7166228 0.55423546 0.6220059 0.9628273 0.9533621
0.50530326 1.1762962 0.8586572 0.6435397 1.0067668 0.61205643 0.88792884 0.8546199
0.97065294 0.632456 0.91304183 0.6042875 0.977196 0.8117664 0.6151499 1.0487317
0.81319755 0.7250123 0.7177112 1.1742274 0.8924545 0.77010804 1.3327 0.53843826
1.1205423 1.0203671 0.84059376 1.0455438 0.6881391 1.2100681 1.1330986 1.051438
0.97534084 0.8613361 1.4144522 0.9087473 1.7518032 1.1437624 1.0221716 1.2832835
0.79750896 0.78849876 0.36481002 0.9798724 0.85310394 0.3159387 0.5324397 0.89202464
0.9893767 0.34437105 0.9353513 1.0619532 0.8001092 0.7625045 0.9809747 0.99758196
0.8291662 1.2519236 1.1297519 0.7613436 0.7250515 0.7229107 0.8287888 0.8113859
1.0033258 1.1619861 0.74851584 0.7253327 1.0963337 1.0177876 0.6041526 1.384496
0.8824719 0.5208327 0.7384975 1.1563791 0.95663077 0.83550966 1.3528093 1.0880506
0.7274151 0.8110458 1.2236849 1.288349 0.68504834 1.6373672 1.2491746 1.106866
1.0884837 1.3321325 1.2730556 0.97371364 1.486279 1.3111882 1.0567179 1.234992
1.3884461 1.3339828

bias f4 [114]
00000000: 3cae 173b 0727 113f 3794 8d3e 4a5b 04bd
00000010: c69f cd3d 2694 9c3e 6656 c73c 13c6 0d3e
00000020: ad0d afbe 10ab 9dbe 0f68 b23e 83dc fb3d
00000030: 39bd d3bd 440f 153c bdda 793d a019 cb3e
00000040: 2496 65bd 8a3e 8f3e 0d3f 03bf f5c9 ad3d
00000050: 6810 00be b82a 5abd 4895 0f3f 2f5a 00bf
00000060: 88a1 a5be cd05 53be f9d8 afbe 06cc b7bd
00000070: ccb5 d93e 6278 35be cd6b 9c3e f87c 533d
00000080: 3997 d7be d6ee 003f 7ee9 133e 5bfe f13e
00000090: 7e49 3bbe deb0 4ebe edf2 133e 44ce a2bd
000000a0: ceef 913e 0c5d 06be 9e69 813c d86b 753e
000000b0: 7858 42bf d8b1 623e b722 d6be a993 8cbd
000000c0: 12c1 36bf 559a 50be 5b22 023e 6c43 41bf
000000d0: 992c 0dbe 9e80 083f 8ff4 37bc ec20 77be
000000e0: d704 ab3d 02e3 89bd 4a21 f03d 1625 5ebf
000000f0: 5d9d 2a3e 3dc9 6ebe 6651 2c3b 9b92 99be
00000100: cd86 3fbe fe7f 27bf bfde c93e 14e7 71bd
00000110: 24b3 e9be 8bb0 1ebe ef9a 14bd 2244 84be
00000120: 2768 52bd 9128 64bd 0b6d a9be fd28 79bd
00000130: 87d1 c33d b601 d8be 62b8 083e 06e1 67be
00000140: 6e24 1b3e 0725 303f 8fa7 28be d9d3 903e
00000150: d456 bdbe 62d2 873e 004e 1fbe bc40 56bf
00000160: f64e 253f f5a8 0b3f aab9 b53e 7e07 b7bd
00000170: 890c 823e 17f5 15be 60f5 fd3e eb61 cf3e
00000180: 743d a73d a198 6f3e ae20 2b3e 28d3 87bd
00000190: 2b69 d83d 11c4 1e3d 2ae1 313d c32a 103e
000001a0: 7fda 19be 464e 9abe df65 653e 4d38 12bd
000001b0: 9f52 61bf eb3a 993d e1ae ab3e cb5e f73c
000001c0: b6d6 d33c b5e2 bf3d
0.0023144623 0.56700176 0.2765214 -0.032313623 0.1004024 0.30581778 0.02433319 0.1384509
-0.3419012 -0.30794573 0.34845015 0.12297919 -0.10338826 0.009097878 0.06099962 0.39667988
-0.05605139 0.279774 -0.5126808 0.08485786 -0.12506258 -0.053263396 0.5608716 -0.5013761
-0.323498 -0.20607682 -0.34345224 -0.08974461 0.42521513 -0.17721704 0.30550995 0.05163285
-0.4210756 0.50364435 0.14444539 0.4726437 -0.18289754 -0.20184657 0.14448138 -0.07949498
0.2850327 -0.13121432 0.015797433 0.2396692 -0.7591624 0.22138155 -0.4182336 -0.068641014
-0.7138835 -0.20371373 0.12708418 -0.754935 -0.13786544 0.53321254 -0.011227741 -0.24133652
0.083505325 -0.067327514 0.117250994 -0.8677534 0.16661592 -0.23318954 0.0026293634 -0.29994664
-0.18703766 -0.65429676 0.39427754 -0.059058264 -0.45644486 -0.15497033 -0.03628057 -0.2583323
-0.05136886 -0.05570275 -0.33091006 -0.060830105 0.095614485 -0.42188805 0.13351586 -0.22644433
0.15150616 0.688065 -0.16470169 0.28286627 -0.36980307 0.26527697 -0.15557098 -0.83692527
0.6457361 0.5455468 0.35493213 -0.08936976 0.2540019 -0.14644276 0.4960127 0.40504393
0.08166018 0.23398067 0.16711685 -0.06632072 0.10566934 0.038761202 0.043427624 0.14078812
-0.15024756 -0.30137843 0.22402142 -0.035698224 -0.88016695 0.07481941 0.3353186 0.030196568
0.025859218 0.09369413

running_mean f4 [114]
00000000: 3e8a 8e3b 07b4 2d3d bd86 59bc 4d44 5b3c
00000010: c94f 34bd 8eba 45bc c161 a1bc 6130 923c
00000020: dadd 443d f52b 423c 3876 62bc 64fa ffbc
00000030: be83 413c 4872 d83a ee37 2f3b 61c1 483d
00000040: 7f76 583c 2082 ba3c dba7 10bd 08e6 113c
00000050: 6ff3 933c 979c 533c 0da3 683d 9442 923c
00000060: 7fff 993c cbc8 27bd 104f 373c b8f6 a23c
00000070: 5e0c e53b fe0f 673d 3856 843c 49b2 8d3c
00000080: 4e59 36bd 769a 173c df71 653c b29d 8f39
00000090: 7ac1 5c3d da1f ac3b 5184 e13c 7aec 49bd
000000a0: 89f8 fb3a 8aeb db3a 2b14 ad3b 043b 383d
000000b0: cc4a 2f3a 47d9 a33c f0ae 2cbd de1e e63b
000000c0: d939 65bb fe27 043c 5ff1 133d 6e50 c3ba
000000d0: 90dd 053d 5f76 09bd 569b ebbb 813f 57bb
000000e0: a9ff d1bb 6934 e63c 2a8b c4bc a5ad 01ba
000000f0: e298 f9bc 7156 c4bc e219 c2bc d37c 8839
00000100: bbfd c13c 1223 80ba b699 133b 3613 91bc
00000110: 42d1 fd3a a291 893a 5853 713c eefd 863c
00000120: b253 a03c 888c c13c bc8b dabc 3873 9f3c
00000130: d217 ce3c a830 ba3c e27a 963c 573c 163d
00000140: 94db a53c fc68 cdbc 2eb0 193d f041 123d
00000150: 1a0d 3f3c 63fa 933c 8781 f53c c06f 883c
00000160: 1622 c7bc 300f 033d 59d4 e23c 67c0 d0b9
00000170: 93b9 813c f933 a53c c483 993c 7c2f ddbc
00000180: b9d0 9a3c d76f c03c 7f4b c63b 9e48 b93c
00000190: a674 a93b e98b 5b3c 7663 cbbc e959 9d3b
000001a0: 3b98 c93b 4e38 513c 0695 bb3c ef96 0b3c
000001b0: 4d37 323c f110 b0bc 70a7 e93b 016d 0d3c
000001c0: 8832 0d3c aa96 6a3c
0.004349976 0.042408016 -0.013276753 0.013382983 -0.0440214 -0.012068404 -0.019699933 0.017845334
0.048063137 0.0118513005 -0.013822131 -0.031247325 0.011811195 0.0016513551 0.0026736218 0.049012545
0.013211845 0.022767127 -0.03531633 0.008904941 0.018060414 0.012915752 0.056796122 0.017854013
0.018798588 -0.040962975 0.011188284 0.019893035 0.0069899997 0.056411736 0.016154394 0.017296927
-0.04451876 0.009253135 0.0140042 0.00027392578 0.05389545 0.0052528204 0.027528914 -0.049297787
0.001922385 0.001677857 0.005281945 0.044978157 0.0006686866 0.020001067 -0.04215902 0.0070227226
-0.0034977107 0.0080661755 0.03611886 -0.0014901289 0.032682 -0.033560153 -0.0071901483 -0.0032844248
-0.006408651 0.028101163 -0.02399214 -0.00049468345 -0.030468408 -0.023967 -0.023693983 0.00026032943
0.023680558 -0.0009776077 0.0022522039 -0.017709356 0.0019364732 0.0010495672 0.014729343 0.016478505
0.019571159 0.02362658 -0.026677959 0.01946412 0.025157843 0.02272828 0.018369142 0.03667864
0.020246305 -0.025074475 0.037521534 0.035707414 0.0116608385 0.01806373 0.02996899 0.016654849
-0.024308246 0.031996906 0.027689146 -0.00039816202 0.015835559 0.020166384 0.018739589 -0.027000181
0.018898355 0.02349083 0.0060514803 0.022617634 0.0051713763 0.013400056 -0.0248277 0.004801978
0.0061521805 0.012769772 0.022898208 0.008519872 0.010877443 -0.021492453 0.007130556 0.008631946
0.008618005 0.014318148

running_var f4 [114]
00000000: 876a 973f d5a1 873f ebd2 913f 838e 7e3f
00000010: 410c 923f 7b6e 933f 35e8 6e3f df22 9b3f
00000020: 5d0a 8d3f 3958 903f 02e1 7c3f 6428 8d3f
00000030: 1879 913f daf0 7b3f 846c 933f 95ea 8f3f
00000040: 89c0 8b3f 2ced 7f3f 40bd 8e3f 5ddd 8b3f
00000050: 8811 813f 1b2c 903f 7d8c 923f 5d2a 8d3f
00000060: de81 803f a99c 913f 229d 8b3f 29bf 803f
00000070: ff2e 943f 2ae6 913f f1e9 8d3f d88d 803f
00000080: 3caf 923f 2613 8c3f 4280 813f 364f 953f
00000090: 184d 8e3f 74bb 8f3f f873 7f3f 16fb 8f3f
000000a0: 3f75 8e3f 3d1d 823f 228f 8f3f ebd9 833f
000000b0: 4d94 8a3f 744e 793f 2ab9 873f 2176 8a3f
000000c0: 008b 7d3f 389f 7a3f 8c26 723f f29c 793f
000000d0: 7f38 6a3f 28fa 783f d914 773f 2846 6f3f
000000e0: cc81 813f fa58 7e3f 8cba 813f 0a62 7b3f
000000f0: 15e0 823f 8ab3 803f 889c 7d3f 99d3 813f
00000100: 9a84 7c3f ecc4 803f 3a93 7c3f 67cf 803f
00000110: 8831 803f 5abb 7d3f e2e1 823f dad4 7d3f
00000120: a3ff 813f 6204 7e3f 8ac5 803f 5208 823f
00000130: 3975 813f 00ef 823f caae 7d3f 08e5 823f
00000140: e3e6 7c3f 02de 803f a7e1 813f 4fb4 813f
00000150: 9c3d 833f 035d 7e3f b6a7 813f 05df 7c3f
00000160: 7a68 813f 3db9 813f a73e 803f cc9f 813f
00000170: e41c 7c3f dfdb 803f 488b 793f e38e 803f
00000180: b15c 803f 0035 803f 7896 793f cc00 743f
00000190: 24b4 7a3f ac2e 723f 2897 793f 4bba 7a3f
000001a0: 2767 7a3f a2bf 673f 6dc0 653f d248 683f
000001b0: 49c7 613f 7a41 673f 8e6e 683f 847e 673f
000001c0: 8fc4 853f 084f 893f
1.1829385 1.0596262 1.1392492 0.99436206 1.140999 1.1518091 0.9332307 1.2120017
1.1018788 1.1276923 0.98780835 1.1027951 1.136508 0.98414385 1.1517491 1.1243464
1.0918132 0.9997127 1.1151505 1.092693 1.0083475 1.126346 1.1449124 1.1028553
1.0039632 1.1375934 1.0907328 1.0058337 1.1576842 1.1398365 1.1087018 1.0043287
1.1459727 1.0943344 1.0117266 1.1664798 1.1117277 1.1229081 0.9978633 1.12485
1.1129531 1.0165173 1.1215556 1.0300878 1.0826508 0.97385335 1.0603383 1.08173
0.9904022 0.978992 0.9459007 0.97505105 0.91492456 0.9725671 0.96516186 0.93466425
1.0117736 0.9935452 1.0135055 0.9819647 1.0224634 1.0054791 0.9906697 1.01427
0.98639834 1.0060096 0.9866215 1.0063294 1.0015116 0.99114 1.0225184 0.9915291
1.0156139 0.9922544 1.0060284 1.0158789 1.0113899 1.0229187 0.9909483 1.0226145
0.98789805 1.0067751 1.0146989 1.0133151 1.0253177 0.99360675 1.0129306 0.987778
1.0110009 1.0134655 1.001912 1.0126891 0.98481584 1.0067099 0.9747815 1.0043606
1.0028287 1.0016174 0.9749522 0.95313716 0.9793112 0.94602466 0.9749627 0.9794051
0.9781365 0.90526783 0.89746743 0.90736115 0.8819471 0.90334284 0.90793693 0.9042742
1.045061 1.0727243

weight f4 [200, 114]
00000000: 8a13 fbbc 1511 a63d fb3f e6bd ed44 c4bd
00000010: 0496 333c 9b8e 1e3d a291 f23d 848c 813d
00000020: 4445 e43d f49c b4bc 9262 1bbe 0074 2abe
00000030: 1b83 86bd 7250 b43d 6174 07bd 7f0a 6a3e
00000040: d48f 163d de60 ad3c 5ef6 81be 2c96 3cbd
00000050: cee6 103d db96 883d a904 e73c b441 e53d
00000060: 8c1a cfbc 5948 28bb b949 8a3d cfd5 02be
00000070: 2daa 903d 7e66 fdbd 1f6d 7e3c 036f 573e
00000080: 0992 12bd 7764 88bd 00f3 8ebd dfa1 c5bd
00000090: 9cad 4fbe b0a4 433d 1001 35be af0c 713d
000000a0: 6efa edbd d8db 12be ea15 c43d 6ba3 13be
000000b0: 6d90 b13c a023 b3bc cef4 133e 7f44 9e3e
000000c0: 9dca 143e cecd 803d 0b08 993e b97d c23d
000000d0: db53 27bd 04b7 21be 02df ee3a 8885 debc
000000e0: fb21 9e3e 8bce 98bd 4cbe 4f3c 892c fcbd
000000f0: b461 243e df9e 483e 45f0 e43d 0141 1b3e
00000100: c3b5 613e 5f63 253d 7bd2 f73d 80aa b1bd
00000110: 4fff 763e 4465 433e 4c49 8dbd 6be0 4abd
00000120: 37bd 3b3e f6c6 153e 5fcd 043e 4039 893e
00000130: d2bd 1f3e d0a9 2ebe d08b 163e 27be b3bd
00000140: 87d1 833d d56f 933e 1cdf ec3c f807 4ebd
00000150: 2919 5bbc 6f73 d63d bc0c 07bd a376 fc3d
00000160: b852 713e 44aa 1bbc d9f6 873d fba5 d13d
00000170: 5327 c23d 5128 89bd 276c c9bd 9013 963d
00000180: ade2 01bd 0ab1 02bd b07d 7cbe 0936 fdbd
00000190: 43e9 21be 340a 8a3d 11f9 95bd 06e8 c9be
000001a0: aafb e7be fa59 1ebe 8fa8 3d3e 763f e0bd
000001b0: 06c8 63bd eafd 3abe e8ea 2bbd e5cb ec3d
000001c0: 4830 4bbe 23d0 953d 0703 2c3e 2430 6cbe
000001d0: 1404 6a3c ac44 6ebc 1f3e 6e3c bbb6 c63c
000001e0: fb8f 203e 440b 313c 1d29 34bd 079e eb3d
000001f0: 7936 42be dace aabd e68c 773d 9f35 143e
00000200: b3e5 b83b 669d 23be 88b6 1dbc b285 b4bc
00000210: f3f4 e9bc 1afa 69bc d6fc 253e fc1e 96bd
00000220: 2492 d1bd ad3e ab3d c39e 4abd f904 e13d
00000230: 6105 3e3e b728 383e 5c38 35be d347 66bd
00000240: 9136 11be 54e0 65bd 22d6 cd3d 4562 61bd
00000250: b674 48bd 6126 75be f2d7 02be ffc3 85be
00000260: d122 b63c b819 0b3d 3593 3bbe 530c 84be
00000270: 127e ba3b 814c f1bd 64cf 8a3c 8a06 e53c
00000280: 7dc7 1abd d8f8 bdbd a288 c8bd 7bf0 67be
00000290: f536 acbd 1276 cebd a07e c03d 6b97 4ebd
000002a0: 77f2 81be a0e4 4bbe 8b9c 313e 9f7d 1d3c
000002b0: b36a 133e 7680 ba3c 625c 9abd 166b 873d
000002c0: afb7 303d ab7e 64bd e1b0 c53d bcf0 633c
000002d0: 704c 20bd 068e 50bd e5cb a23d e5e0 063e
000002e0: 7b3f 07bb ad08 953d 180c d33b 6da7 a53d
000002f0: e5cd a9ba 4c9b ab3d 64a5 d53d 62bd fdbc
00000300: b28f 83bd 1fb2 62bd 7a10 05be 0c1c 1a3d
00000310: 479c 89bd adba b5bc 03a2 55be 3fa6 cc3c
00000320: f869 1abd 73e6 843d b746 d6bc 66d5 1bbe
00000330: faa6 2abe 87c3 22be 87f9 89bb e3c4 b33c
00000340: d3ca 3ebc 9c8f 0f3d 8021 d6bd a811 0abe
00000350: 4676 a5bd 2573 9b3d 2e82 38bd 1c89 08be
00000360: d5b2 0dbd 954c b8bd 8c2d c43c 0bc3 02be
00000370: b66e 403d 73dc e03c e253 e13d c331 7f3c
00000380: 77a5 c9bd 24e0 033d 921f 583e fe68 143e
00000390: eb78 3bbc 9018 e33d ceb6 693c 7a10 88bc
000003a0: a976 803d 2628 aa3d 97c7 1f3c 99c7 77bd
000003b0: 6f63 943d d1fa 43bc 8cfc b7bb 6b30 043e
000003c0: 4cbe 08bd 9a8c 493d e411 18bd 4c08 f9bd
000003d0: b0c9 1fbd 7728 29be 9a24 f83d 7df2 6bbd
000003e0: 506c 0f3e 9e6d 9fbd c4c5 0abe 6043 653e
000003f0: 4dbb 9c3d 8b4a cb3d eb81 f23d 09ed 273e
-0.030648965 0.08108727 -0.11242672 -0.09583459 0.0109610595 0.038710218 0.118441835 0.06325629
0.11146024 -0.022047497 -0.1517432 -0.16645813 -0.06567975 0.08804406 -0.033069972 0.22855566
0.03675826 0.021164354 -0.25383276 -0.046041653 0.035376363 0.066693984 0.028200464 0.111941725
-0.025281213 -0.0025677888 0.06752343 -0.12776874 0.070637085 -0.123730645 0.015528946 0.21038441
-0.0357838 -0.06659787 -0.06979942 -0.09650015 -0.2028107 0.04776448 -0.17676187 0.058849987
-0.11620031 -0.14341676 0.09574492 -0.14417808 0.021675313 -0.021867573 0.14448854 0.30911633
0.14530416 0.06289254 0.2988895 0.09496636 -0.040851455 -0.15792471 0.001822442 -0.027163282
0.308853 -0.0746127 0.012679648 -0.12313182 0.16052896 0.19591855 0.1117864 0.15161516
0.22041993 0.04037797 0.12100693 -0.086750984 0.2412083 0.19081599 -0.06898746 -0.049530428
0.18333898 0.14626679 0.12968968 0.2680149 0.15599754 -0.17056966 0.14701772 -0.08776503
0.064364485 0.2879626 0.02891498 -0.05030057 -0.013372698 0.10471236 -0.03297113 0.12327316
0.23566711 -0.009501044 0.06638879 0.102367364 0.09480157 -0.06697143 -0.098350815 0.0732795
-0.031710315 -0.03190712 -0.24657321 -0.12363822 -0.15811639 0.06740227 -0.07322896 -0.39434832
-0.45309192 -0.15464011 0.18521331 -0.10949604 -0.05561068 -0.18260923 -0.04197207 0.11562327
-0.19842637 0.073150896 0.1679803 -0.23065239 0.014283199 -0.01454274 0.014541178 0.024257055
0.15679924 0.010805909 -0.04398452 0.11504751 -0.18966092 -0.08340235 0.060437106 0.1447358
0.0056426167 -0.15978011 -0.009626038 -0.022036407 -0.028559184 -0.01428082 0.1620973 -0.073301286
-0.10232952 0.08361564 -0.049467813 0.109872766 0.1855674 0.17984281 -0.1769728 -0.05622084
-0.14180972 -0.05612214 0.10050608 -0.055025358 -0.04893943 -0.23940422 -0.12777689 -0.26126096
0.022233399 0.033960074 -0.18317874 -0.25790653 0.0056912983 -0.1178217 0.016944595 0.02795722
-0.037787903 -0.09275979 -0.09791686 -0.2265033 -0.0840892 -0.10081114 0.09399152 -0.050437372
-0.25380298 -0.19911432 0.17344873 0.00961247 0.14396171 0.022766333 -0.07537152 0.06612222
0.043143924 -0.055784862 0.096528776 0.013912376 -0.039135396 -0.050916694 0.07949046 0.13171728
-0.0020637203 0.072770454 0.0064406507 0.080885746 -0.0012955038 0.0837923 0.104319364 -0.030974094
-0.06423892 -0.05534565 -0.12994567 0.037624404 -0.06719261 -0.02218374 -0.20862584 0.024981616
-0.037698716 0.06489267 -0.026156766 -0.15218124 -0.16665259 -0.158949 -0.004210654 0.021944469
-0.011645037 0.035049066 -0.10455608 -0.13483298 -0.080791995 0.075903215 -0.045046024 -0.13333553
-0.034594376 -0.08998982 0.0239475 -0.12769715 0.046980582 0.027448868 0.110023275 0.015575829
-0.09846013 0.03219618 0.21105793 0.14493176 -0.011442403 0.11088669 0.014264775 -0.01660942
0.06272633 0.08308439 0.009752176 -0.060493086 0.07245528 -0.011961655 -0.0056148227 0.12909095
-0.033384606 0.049206354 -0.037126437 -0.12159786 -0.039010704 -0.16519342 0.12116356 -0.0576043
0.14006162 -0.0778458 -0.13552004 0.22388983 0.07652912 0.09926327 0.11841186 0.16399015

weight f4 [200]
00000000: 4668 603f e9f1 453f 4681 993f 0ae6 813f
00000010: 45e8 853f 1482 ab3f 9ab8 833f cc0d 7a3f
00000020: 836d ab3f d3b8 873f a833 823f b2d5 6e3f
00000030: baaf 793f 3509 683f c188 903f 12e9 5d3f
00000040: e7d7 2e3f 7dc6 823f 8a30 383f e0de 993f
00000050: b12b 2b3f 0988 743f 0b1d 913f 5aeb 8e3f
00000060: 8034 8a3f 31ed 823f 6a42 363f 23a2 783f
00000070: 94cd 6a3f e8bb 623f 6bef 733f c539 363f
00000080: 13dd 8b3f f184 563f fb8b 613f 399b 8b3f
00000090: 7667 633f 8b8f 523f 65ad 333f c611 933f
000000a0: 295f 7f3f c297 853f 8987 a43f d80a 8c3f
000000b0: 027a 803f 60ba 853f 74a7 953f 1363 673f
000000c0: 6ab1 823f efc7 ab3f c8d2 5c3f 85fb a33f
000000d0: cb9b 223f 604a 9c3f a47e 893f 9c40 8a3f
000000e0: 6325 403f c563 303f e4cf 943f 118c bf3f
000000f0: 8a81 693f 5fc7 5d3f c295 6a3f 94be 7e3f
00000100: b276 893f a296 7e3f deea 423f c8f9 7d3f
00000110: 2bab 5c3f 6c14 663f e599 973f 5bc7 823f
00000120: d813 873f 4c7f 6a3f 4aaa 573f 13a9 643f
00000130: 2ae7 883f 0c5b 7a3f 2c83 783f ff3d 753f
00000140: 2e90 6c3f cedd 563f 442c 9d3f 9aca 7f3f
00000150: 3040 853f 07f7 673f e2ce 753f 4879 863f
00000160: ccb7 853f eac1 823f c126 823f 8528 913f
00000170: 5e6f 753f 3e81 743f 9225 903f c2b2 793f
00000180: 9b80 633f 2b24 353f dc60 9c3f 2f53 903f
00000190: 917b 7f3f 6946 8b3f a6f7 7a3f b9ad 233f
000001a0: f369 793f 734c 833f 2559 693f 6749 553f
000001b0: 2544 923f 84fb 0d3f c99a 783f e021 853f
000001c0: 54ae 773f 6861 803f 31ed 843f 6fcc 7f3f
000001d0: e497 733f 35da 8a3f 1bd3 883f 1703 663f
000001e0: 96fd 873f 3ffa 833f de5a 7e3f c188 5b3f
000001f0: c4fd 933f c2f0 a03f cca5 7a3f cac3 893f
00000200: d669 933f 8095 843f 11ac 733f 6dec 3d3f
00000210: ec2b 913f ee1c 8d3f ee16 8f3f e3ee 6c3f
00000220: e69c 913f cce9 3a3f 0b76 803f 0d8c 503f
00000230: d143 973f 2a17 873f c72b 763f 8d09 503f
00000240: 8456 6e3f bc4d 8a3f 4114 203f 1678 423f
00000250: 25c2 7c3f b60d 8a3f 8139 983f 145c ad3f
00000260: 414a 6e3f fcb1 873f 0503 3f3f 7c81 8e3f
00000270: 6528 223f 0ca9 893f 1fb0 9a3f 7d19 a23f
00000280: f143 693f 2f2d 4c3f 787f 633f c80f 983f
00000290: ab06 4e3f 6f3b 883f 23a7 6e3f 20fd 6c3f
000002a0: 9238 773f 81ab 493f 6dd4 553f 09e8 353f
000002b0: d543 663f 1bdd 6c3f 0682 8c3f 596b 933f
000002c0: 592c 7f3f 95a4 473f 29d8 7a3f 57cc 773f
000002d0: 8a28 893f cd89 5b3f 91a9 863f 231a 913f
000002e0: 9794 643f 9fbe 733f f712 7b3f c696 8d3f
000002f0: ae99 6f3f dff2 7d3f 1457 303f f32b 463f
00000300: d6d6 6a3f c719 863f 144a 843f db67 823f
00000310: 5b3e 8a3f 4f9b 533f 1e92 813f 27c0 6c3f
0.8765911 0.7732225 1.1992576 1.0148327 1.0461508 1.3399072 1.0290711 0.976773
1.3392795 1.0603279 1.0172014 0.93294823 0.9753376 0.9063905 1.1291734 0.8668376
0.6829819 1.0216824 0.71949065 1.2021141 0.6686354 0.95520073 1.1336988 1.1165574
1.0797272 1.0228635 0.7119509 0.971224 0.9171994 0.8856797 0.952872 0.711819
1.0926841 0.837966 0.8810422 1.0906745 0.88829744 0.8225028 0.70186454 1.1489799
0.9975458 1.0436938 1.2853862 1.0940809 1.0037234 1.0447502 1.1691728 0.9038555
1.0210392 1.342039 0.86259127 1.2811133 0.6351897 1.2210197 1.0741773 1.0800967
0.7505705 0.68902236 1.1625943 1.496462 0.91213286 0.8663234 0.9163476 0.9950955
1.0739348 0.994486 0.7613963 0.9920926 0.8619868 0.8987491 1.184384 1.0217088
1.0552931 0.9160049 0.84244215 0.89320487 1.0695546 0.97795177 0.9707515 0.95797724
0.924075 0.839322 1.2279134 0.9991852 1.0410213 0.9061131 0.96018803 1.0505762
1.0446715 1.0215428 1.0168077 1.134049 0.9587306 0.9550971 1.1261466 0.9753839
0.8886811 0.7075831 1.2217059 1.1275386 0.9979792 1.0880862 0.9803413 0.63936955
0.9742729 1.0257705 0.9115165 0.8331513 1.1427046 0.5546191 0.97111183 1.0400963
0.9675038 1.0029726 1.0384885 0.99921316 0.9515364 1.0847842 1.0689424 0.89848465
1.0624263 1.0310744 0.993574 0.85755545 1.1561818 1.2573473 0.97909236 1.0762875
1.1516674 1.0358124 0.9518443 0.7418888 1.1341529 1.1024454 1.1178873 0.9255201
1.1376007 0.73012996 1.0036024 0.814637 1.1817571 1.0553944 0.9616055 0.81264573
0.9310076 1.0804973 0.62530905 0.75964487 0.9873374 1.0785434 1.1892549 1.3543725
0.9308205 1.0601192 0.7461398 1.1133265 0.6334289 1.0754714 1.2084998 1.2664028
0.91119295 0.79756445 0.88866377 1.1879816 0.80478925 1.0643138 0.9322378 0.9257374
0.96570694 0.7877732 0.8352726 0.7105718 0.89947253 0.9252488 1.097718 1.1517135
0.99677044 0.7798551 0.97986084 0.9679617 1.0715497 0.8575714 1.0520498 1.1336101
0.8928923 0.9521274 0.98075813 1.1061637 0.9359387 0.99198717 0.6888287 0.7741081
0.91734064 1.0476617 1.0335107 1.0187944 1.0800279 0.8265886 1.0122716 0.924807

bias f4 [200]
00000000: f783 eabd 04d4 e83e 801a 463c 40cd e23d
00000010: 4fcc 3c3e 1192 2a3e 5340 58bc 6b09 b13d
00000020: 9c58 343e 4955 a03e 8656 8b3e 4a42 943e
00000030: 68e8 4cbe 584f d23e d896 ee3e 328d 963d
00000040: 24e1 393e 7dfb 953d aa13 393d d692 863e
00000050: 0523 2a3e 77b0 ba3d b562 643e 898e cb3e
00000060: 581f 733d 1115 81bd 24ad edbe 83c5 973e
00000070: 7d50 0c3f e09b da3e a839 673e f2f9 5abe
00000080: d386 f63d 483e 973e 6883 1a3f 3a43 c13e
00000090: 68ae 8d3d a4c9 c63e 7315 9a3e 8c99 7d3e
000000a0: 278d b53d 9852 da3e f832 693d 2fda 353f
000000b0: 54d8 293e 3c88 893e 1aa7 a33e 4473 f43d
000000c0: 2fe1 333e 17bf 3e3e 23af 773e 010a b0bb
000000d0: 4d88 733e 11ae 5f3d 07e3 6cbd 980c dd3e
000000e0: e298 f8be 3e1d 923e 4900 683d 68cb 413e
000000f0: 11cc 3a3e f4f6 223f b289 0d3e 56c7 72bd
00000100: 93d5 d93e 635f a43e 1cb0 40be dd3a dd3e
00000110: 2e29 a73d 94d4 dc3d a343 11be 7ad6 e03d
00000120: e469 bf3e f3da 83be 726a f8be 6080 fd3e
00000130: 4d38 efbc 8e41 b83d 3a23 bc3e 64fb 6a3e
00000140: 800e c93e 91a4 273e 2626 03bd 06e8 f13e
00000150: 93bb 513e 6155 523e 1149 51be 3ae7 f93d
00000160: 39a5 c93e ef04 903e af49 643e 9d98 c2bc
00000170: 4a52 873e 54df 1abe 5db6 3c3e cb59 133e
00000180: 6766 273e 797e c73e 5de6 a93d dc99 403e
00000190: 8029 1e3e 4954 aebd ad59 b43e 874f 183d
000001a0: 181a a43c ec34 63bd 85e9 ff3e a33a b6bc
000001b0: 2f38 263e 924c de3d b8ed 093f 2484 20be
000001c0: 317a 57be 2ff3 d33e 8bcc 0f3f 46ab e93e
000001d0: b925 b9bc 4d74 2c3e 5947 273e 24aa aebd
000001e0: 06d7 f03e dec0 8d3e 8d71 d73e 1dfb ad3d
000001f0: 290e dc3e ba79 0fbd 72aa c13d bdc2 9d3e
00000200: c352 c83c d2f1 a53e 97ae 873e e561 0ebf
00000210: 71de 0f3f 44cd be3e d1ed e9bc 65f7 0cbe
00000220: 2cc7 f4bd 9f71 8bbe 1fc2 3dbe 8de6 c6be
00000230: 7f62 a73e 516c e13e 9780 043f 2b14 583e
00000240: 6940 ec3c 9fef 3e3e 417d c13d 3d9f 37bd
00000250: c996 6bbe 7108 10be 48ea 333e d9cc d9bd
00000260: 3cd4 2b3d b624 7a3e 0617 473e d946 323e
00000270: aed0 a13d 267b 713e 103d b73e 7d23 bb3e
00000280: e24d 0fbe ec9b eb3d 8066 023e 83a6 a13e
00000290: a160 88bd 36e4 803e 8291 0e3d 0dd2 01be
000002a0: 2ed9 733d 897f 4c3e d25a 27be 0309 c73e
000002b0: 255e 983e fb26 cc3e ee2e 933e 73f1 b33e
000002c0: d106 61be 0662 c73e a5fc ee3e 563f 2a3e
000002d0: 0704 d6bc 6ae8 663e ea66 a23e 9465 463e
000002e0: 3b3b 9d3e 0799 30be 0d85 743e c539 ce3d
000002f0: 1fdc 103e e6eb 8dbd 960f 3a3e 38c5 003e
00000300: 49e5 4d3e 3371 db3d b541 803e 2c76 22bd
00000310: 383f 4e3d d494 5d3e c535 2fbc 0308 893d
-0.114509515 0.45474255 0.012091279 0.110743046 0.18437313 0.16657282 -0.01319893 0.086443745
0.17611927 0.31315067 0.2721445 0.28956825 -0.20010531 0.4107616 0.4659946 0.073511496
0.1815229 0.07323358 0.04518477 0.26283902 0.16614921 0.09115689 0.22303279 0.39757183
0.059356064 -0.06302846 -0.46421158 0.29642877 0.54810315 0.42697048 0.22580588 -0.21384409
0.120374344 0.29539704 0.6035676 0.37746602 0.06918031 0.38825715 0.3009449 0.24765605
0.08864813 0.4264114 0.056933373 0.71036047 0.16586429 0.2686175 0.31963426 0.11936048
0.1756637 0.18627582 0.24187903 -0.0053722863 0.23782463 0.054609362 -0.057833698 0.4317367
-0.4855414 0.28537935 0.056640897 0.1892525 0.18241908 0.6365807 0.13822058 -0.059272133
0.42545757 0.32104024 -0.1881718 0.43208972 0.08162151 0.107827336 -0.14185958 0.10978408
0.37385476 -0.25752982 -0.4851871 0.49512005 -0.029201651 0.089968786 0.36745626 0.2294746
0.39268875 0.16371371 -0.032018803 0.47247332 0.2048171 0.20540382 -0.20438029 0.12202306
0.39383867 0.28128764 0.22293733 -0.023754412 0.2642997 -0.15124255 0.18428941 0.14389722
0.16347657 0.38963678 0.082958914 0.18808693 0.15445518 -0.0851217 0.35224667 0.03718522
0.020031974 -0.055470392 0.4998285 -0.022244757 0.1623237 0.108544484 0.53878355 -0.15675408
-0.21042706 0.41396472 0.5617148 0.45638484 -0.022600995 0.1684124 0.1633581 -0.085285455
0.4703905 0.27686208 0.4207882 0.08495162 0.42979553 -0.035028197 0.09456338 0.30812636
0.024453526 0.32411057 0.2650039 -0.55618125 0.56198794 0.3726598 -0.028555783 -0.13766249
-0.119520515 -0.27235124 -0.18531083 -0.3884777 0.32692334 0.4402795 0.5175871 0.21101443
0.028839307 0.18646096 0.094477184 -0.044829596 -0.23006739 -0.1406572 0.1756984 -0.10634775
0.04195045 0.24428067 0.19442376 0.17409839 0.079011306 0.23582134 0.35788774 0.36550513
-0.13994554 0.11504349 0.12734413 0.3157235 -0.066590555 0.2517411 0.034806736 -0.12677784
0.05953329 0.19970526 -0.16343239 0.38874063 0.29759327 0.3987349 0.28746742 0.3514515
-0.21975257 0.38941973 0.46677127 0.16625723 -0.026124967 0.22549596 0.31719142 0.19374686
0.30709252 -0.17245875 0.2387888 0.100696124 0.1414647 -0.0692976 0.18170008 0.12575233
0.20106997 0.107149504 0.2505013 -0.03966348 0.05035326 0.21638805 -0.010693972 0.06690981

running_mean f4 [200]
00000000: d59a 353f bf23 fd3e 8e2d de3d 91e0 b13f
00000010: f036 673e e0ef c33e c406 a93e ec9b 6b3e
00000020: cfdb ac3d aef0 093e 4514 df3e 0590 903f
00000030: 9802 c03e 638e 2c3f cc11 923f 1465 3c3e
00000040: 3a0d 7b3f e9b5 f03e 283e 5b3f 6cd9 f33d
00000050: 9c2e d23e 02ec e03e 952b cc3e 4560 713e
00000060: 1e4b ba3d 15ec 233e bd54 0b3f ad01 af3d
00000070: 05de 863f 5ba9 2f3f d9f9 993e bb87 5d3e
00000080: 7f24 363e ba83 5a3f 4f1e 733f 6f3e 2a3f
00000090: bab9 333f 02a1 133f e076 743f 5c2b a73e
000000a0: a624 a83e 0f93 753f 88f9 763e 0f8b 643f
000000b0: f27e 073e c7e1 0a3e 65dc 5e3e 693c 493f
000000c0: ea7c 653e 6013 ee3e c6a2 a53e 5962 3e3e
000000d0: 66bc 133f 79d6 de3e 26c6 2d3e 457d cb3e
000000e0: 4641 493e 9e85 4b3f e253 a53d a779 173e
000000f0: 0ad4 903e 72fb 403f b9a2 0c3f fd37 4c3e
00000100: bbfb 113f 488f ed3d c512 283e a38f 4e3f
00000110: f89a 5e3e 2d14 d93e 6b15 2c3e b255 7c3d
00000120: 4618 663f 99b6 a93e c114 303e e478 cc3e
00000130: d00f 833e b37c 033f 47d5 e13e d74d 523f
00000140: c28b 013f 30d3 0e3f bbf2 ad3d 22d2 cc3e
00000150: dbfc bf3e ad41 093f f743 c43e b1dc ff3d
00000160: dfb3 bc3f ee51 f63e ffd7 db3d 66ff 283e
00000170: 01b5 423f 1663 5c3e 4ecc a13d 7c10 193e
00000180: bcaa be3e 1bd7 003f 61d4 f73e 9385 2c3f
00000190: 3c27 0c3f 6730 ef3d c972 123f 6f48 383f
000001a0: 185e 553e 688e c83e 8825 113f ee0c 503e
000001b0: 9b68 f03e 93c5 1f3e fe65 1c3e 4674 8b3e
000001c0: a1e1 cd3e d8a8 893f ad90 5d3f e549 913e
000001d0: 67b7 ea3e bc30 3f3e 10c7 8a3e ea31 403e
000001e0: c910 053f 46b1 c03e b9e9 ad3e c79c c33e
000001f0: daf9 233f 0d61 a03e df7b c23d aae1 243b
00000200: f1ed 0e3f 82b5 df3d d3af 083f ae0f 093f
00000210: 0ddd e23e e6db 373e 225a 683e 5d2e f03d
00000220: 016a 003e 57b5 833d 31d3 a83d 2de2 e23e
00000230: 1a1b dc3d 5d3a e83d 084a 463e 4fab 733f
00000240: d51b be3e 686d 8b3e 9a6f 553e c488 bc3e
00000250: c55b b63e 5655 8d3e ec9f 9c3d a377 363e
00000260: c50d 283e d0cf 463d fd0e 973e 7bf5 083f
00000270: 6d8e 283f 65a9 2b3e f3cf 413e 2de1 9c3e
00000280: 2469 893e 85e9 b33e e9ee ec3e 1dc0 f43e
00000290: e673 233f 004c 063f 3a0b 833e 9441 283f
000002a0: e0a1 0c3e 8990 083f f377 b63e f47e 6b3f
000002b0: d349 9e3e 066b c53f 277c 523f ecb7 5e3e
000002c0: 94d2 873e 9a2b de3e a21d 883e 14aa a23e
000002d0: 1810 a33e 3921 223f abef d63e a67f f53e
000002e0: 38ae 063f f363 803e 9007 7c3e f9cb d73d
000002f0: de38 573e e655 083e f1a5 9d3e ded3 f93e
00000300: 80da 7b3d dbd1 153e fdf2 1a3e f36b 353d
00000310: c9c2 883e 0f97 913e e952 323f cff5 383e
0.7093938 0.49441335 0.108485326 1.3896657 0.2257955 0.38268948 0.33012974 0.23008698
0.08440363 0.13470718 0.43570152 1.1293951 0.3750198 0.67404765 1.1411681 0.18397933
0.9806706 0.47013786 0.8564172 0.11906704 0.41051185 0.4393006 0.39877 0.2357188
0.09096359 0.16008027 0.54426175 0.085452415 1.0536505 0.6861779 0.3007343 0.21633808
0.1778736 0.8535725 0.9496812 0.66501516 0.7020527 0.57667553 0.9549389 0.32650268
0.3284046 0.9592752 0.24118626 0.89274687 0.1323202 0.1356269 0.21763761 0.78607804
0.22410932 0.46499157 0.3235075 0.18592204 0.5770935 0.43523005 0.16970119 0.3974401
0.19653806 0.7950076 0.0807264 0.147925 0.28286773 0.75383675 0.54935795 0.19943233
0.57024735 0.11599594 0.1641341 0.8068792 0.21738803 0.42398205 0.16805045 0.061605163
0.8988079 0.33147123 0.17195417 0.39935982 0.25598 0.5136215 0.4410803 0.82150024
0.5060388 0.55790997 0.08493563 0.4000407 0.374976 0.5361584 0.38333103 0.124932654
1.4742392 0.48109382 0.10734557 0.16503677 0.7605744 0.21522173 0.07900296 0.14947695
0.37239635 0.50328225 0.4840422 0.6739132 0.54747367 0.11679154 0.572064 0.71985525
0.20836675 0.39171147 0.56697893 0.20317432 0.46954808 0.15602712 0.15273282 0.27237147
0.40211204 1.0754652 0.8654888 0.2837669 0.4584305 0.18670934 0.27104998 0.1876904
0.5197874 0.3763525 0.3396738 0.3820555 0.6405312 0.31324044 0.09496283 0.002515892
0.5583182 0.10923292 0.53393286 0.5353955 0.44309273 0.17954978 0.22690633 0.11727593
0.12540437 0.06431072 0.082434066 0.44313183 0.10747357 0.11339257 0.19364178 0.9518327
0.3713061 0.27231908 0.20843354 0.36823094 0.3561689 0.2760417 0.0764769 0.17819075
0.16411503 0.04853803 0.29503623 0.53499573 0.65842324 0.16763838 0.18926983 0.30640545
0.26838028 0.351391 0.46276024 0.4780282 0.6384872 0.52459717 0.25594503 0.65725064
0.13733625 0.53345543 0.3563839 0.9199059 0.30915698 1.5423286 0.8222069 0.21749848
0.26527846 0.4339264 0.26585108 0.31770384 0.31848216 0.63331944 0.41979727 0.4794895
0.52609587 0.25076255 0.2461226 0.105369516 0.21017787 0.13314018 0.30790666 0.48794454
0.061487675 0.14630835 0.15131755 0.0442924 0.2671111 0.2843556 0.6965776 0.18062519

running_var f4 [200]
00000000: 2216 823f 4825 7e3f 485c 123e dc6f 6f40
00000010: 2ea1 ba3e e433 813f 3d61 323f 5c95 5b3e
00000020: 4557 e63d f6dc 433e bb27 fe3e 05e2 1a40
00000030: 64ff 3d3f 2e21 9e3f 049f 2c40 8e4c 3a3e
00000040: ca67 bb3f a40a 773f 7a50 be3f 6a48 123e
00000050: 7b2f e33e c472 543f 3042 f73e 5764 b33e
00000060: 47aa 9e3d 1ec7 793e 01b0 893f 439b da3d
00000070: ac49 1c40 9089 903f eefa ae3e 3f91 e53e
00000080: 436b 523e 9da6 763f 1f2d 1a40 4065 873f
00000090: cd4e a33f df60 493f 0964 0240 5d4b f03e
000000a0: 10c0 dc3e 7090 3e40 f958 bb3e b993 c33f
000000b0: a5e5 503e 1ffc 583e 42c9 c73e c6e6 c13f
000000c0: 9c1a 133f afdb 503f 41f1 be3e b602 523e
000000d0: a388 633f 5f0c 183f 4979 733e 3b12 363f
000000e0: d3ca 843e ea34 2740 f78a d33d db8a 2c3e
000000f0: c0b1 ff3e 91fc 5b3f d527 9a3f cef9 b43e
00000100: dfd0 3b3f 1fef 593e b124 623e 7379 d03f
00000110: 6a98 7d3e d160 643f 0977 663e b138 643d
00000120: f9e2 b03f c0ae fd3e b469 593e 924e 083f
00000130: c66c cb3e 3f0e 343f 2a6c 0c3f 57d4 ef3f
00000140: 749f 2f3f 548d 313f 038a b33d f229 063f
00000150: ea0e 813f d070 3a3f 393f 023f 9d7a d33d
00000160: f75f 8340 14c5 2c3f e779 103e 7b3f 683e
00000170: aa68 c33f 637a 823e 40ef aa3d 2539 573e
00000180: b11c 253f 532d 243f 737e 4a3f 1bda b23f
00000190: 3e1c 323f f6a6 063e 0921 053f be92 c13f
000001a0: 5794 b23e 38d8 193f 0e78 7a3f c21e cb3e
000001b0: c52d 803f 0fdf 9c3e 1d29 373e d4c1 d93e
000001c0: 64cf 753f 4c72 4140 98dd b73f 09ea fe3e
000001d0: a97f 323f 8b19 9a3e 6e12 cf3e 49a4 e63e
000001e0: 6af0 aa3f a61d 113f ee15 ce3e 04fb e43e
000001f0: 824c 7b3f 47fc 253f 824b bd3d 0766 1d3b
00000200: f38b 973f 75ec cb3d 07ab 913f 3bbd 703f
00000210: 79eb 5a3f 84f6 583e 4e4d a83e f4cd 163e
00000220: c5dd 493e 324d b13d 676c b03d 6700 423f
00000230: e91d 2b3e afa2 e83d edce ee3e b329 ca3f
00000240: e560 b73e 357d aa3e 6ec2 3e3e a8b1 873e
00000250: 68ed f63e 8fb9 163f 2b4e b93d 6041 933e
00000260: b83a 453e 3a33 a13d 968a c63e 2729 2d3f
00000270: 41cc d33f 256c 8e3e e61f 5f3e c539 e73e
00000280: c2bb 9a3e 6359 223f 0758 423f d4dc 553f
00000290: 1ea4 a73f 9588 323f b0da b53e 1ce1 7f3f
000002a0: e95c 8b3e 73ef 1d3f 0153 343f a8ec 9b3f
000002b0: 7a04 b43e 91a3 9940 6fc4 883f 0a4e bd3e
000002c0: aaab a33e a7bf 773f 00c8 073f 689d 003f
000002d0: 2b1b b03e 1449 8d3f ef31 693f f51e 443f
000002e0: c9e5 1f3f 610f 953e e323 ab3e 2d12 0f3e
000002f0: eb15 6c3e 94c9 3a3e e3ca f53e 461c 963f
00000300: 61e9 c93d 956a 553e 90c2 663e f871 353d
00000310: 954f c83e 15c6 d33e 0f09 943f 17f3 6a3e
1.0163004 0.99275637 0.14293015 3.7412024 0.36451095 1.0093961 0.69679624 0.21443695
0.11247114 0.19127259 0.49639687 2.4200451 0.7421782 1.2353876 2.6972055 0.18193266
1.4641049 0.9650061 1.486831 0.14285436 0.44372162 0.8298762 0.48292685 0.3503749
0.077473216 0.24392363 1.0756837 0.10674145 2.4419966 1.1291981 0.3417582 0.44837376
0.2054873 0.9634798 2.409004 1.0577774 1.2758423 0.7866344 2.0373557 0.46932498
0.43115282 2.9775658 0.36591318 1.5279456 0.20400102 0.21189927 0.39020735 1.5148551
0.5746248 0.8158521 0.37293437 0.20508847 0.88880366 0.59393877 0.23776735 0.7112157
0.25935993 2.6126046 0.1032924 0.16849844 0.499403 0.8593226 1.2043406 0.35346836
0.73365587 0.21282624 0.22084309 1.6287063 0.24765173 0.8921023 0.22506346 0.055718128
1.3819267 0.49547386 0.21231729 0.5324489 0.39731425 0.7033424 0.54852545 1.8736676
0.6860268 0.69356275 0.08766558 0.52407753 1.0082676 0.7282839 0.5087772 0.10326121
4.1054645 0.6748822 0.14109002 0.22680466 1.5266316 0.25484 0.083464146 0.21017893
0.64496905 0.6413166 0.79099196 1.397281 0.69574344 0.13149628 0.5200353 1.5122907
0.348788 0.6009555 0.9783944 0.39671904 1.0013968 0.3063893 0.17886777 0.42530692
0.9601958 3.0226011 1.43645 0.4978793 0.69726044 0.30097613 0.40443748 0.45047215
1.3354619 0.56685865 0.40251106 0.4472276 0.98163617 0.6483807 0.092429176 0.0024017112
1.1839584 0.0995721 1.1380318 0.9403874 0.8551555 0.21187788 0.3287148 0.14727002
0.19713505 0.08657302 0.08614426 0.75781864 0.16710629 0.113591544 0.46642247 1.5793976
0.35816112 0.3329865 0.18628857 0.26502728 0.48228002 0.5887689 0.090481125 0.28760815
0.1926068 0.07871099 0.38777608 0.6764092 1.6546708 0.27816883 0.21789512 0.45161262
0.30221373 0.63417643 0.7591557 0.8354008 1.309696 0.6973966 0.35518408 0.99952865
0.27219322 0.61693496 0.70439154 1.2181597 0.35159665 4.8012166 1.0684947 0.36973602
0.31966907 0.96776813 0.5303955 0.5024018 0.34395728 1.1037927 0.9109182 0.76609737
0.6246 0.29113296 0.33425817 0.13971777 0.23055236 0.18240958 0.48006353 1.1727378
0.098589666 0.20841439 0.22535157 0.044298142 0.39123216 0.41362062 1.1565264 0.22944294

weight f4 [100, 200]
00000000: 8ec0 193d bc4e cdbd 1c5d 03be 7f1a 0a3d
00000010: 6710 dd3d 6700 28bd 61b7 9fbd 6316 eabb
00000020: 968e 163d f943 0d3b 12cb cdbd 7e93 04be
00000030: 3651 87bd 33c8 c9bd 33b6 93be 45cc 9bbd
00000040: cf78 74bd 3773 0ebe 923b eabd 7614 563e
00000050: 80c3 d23c 4ef9 3dba c3ad 9fbd 0223 28be
00000060: 6680 883d ee9d 9d3d 429d 943c 9807 92be
00000070: 8d67 babc 1991 2ebe 57b9 f4bb 91e2 293e
00000080: c323 fbbb 2f0b 21be 422d 03be 1dc7 f8bb
00000090: 29d0 3b3d 04e1 cabc 09a1 cb3c 6cd3 023d
000000a0: f12b 11be 7a14 cb3d 5a47 41bd 9081 d2bd
000000b0: eab9 a33d 7050 433e 92a0 55be 7430 873b
000000c0: 5554 9dbb 7209 573d 29c5 2cbe 4cbd 32bd
000000d0: 09ce 703c bcc8 65bd 18ed 0f3d 1de0 e8bd
000000e0: 6ed2 c8bc fd5c c0bd 3573 863c 016d 0cbd
000000f0: 4609 dfbd cb50 023d 051f 37be 6818 353e
00000100: 0418 f4bd 9ed7 ac3d 96f3 adbc 2ad0 cfbd
00000110: 6e9a 04bc fee4 7c3d 0402 54bd a989 0bbc
00000120: 4ac8 d3bd 2b06 fbbd 70de 7abc 950f 7dbc
00000130: cc7c 53bd 26dc 82be 0125 40be b5e2 883d
00000140: 26c8 6a3c 51fa fc3c fee5 e33c 63f4 00bc
00000150: 90f2 d9bd a8d5 52be 877b 913d b2a9 2e3d
00000160: b0cd 93be 7e76 2e3d 2ea8 45bd b235 24be
00000170: cbef 48bd 2d9c 403e cca8 463e 9d5f 04bd
00000180: b5a7 f73d 9346 9abd 73e8 ce3d 3749 95bc
00000190: f3d9 2fbe abf6 623d 2f02 d6bd e90f cebd
000001a0: 480c 6ebd 4f94 8dbd 6797 24bd d8af 233d
000001b0: 7307 f2bd cc4a 513d d27b edbd 1d22 1d3d
000001c0: 5237 64ba 7087 2cbe 1820 d3bd 8a71 b33c
000001d0: d034 02be 424b 68bd 3735 ec3a cf3a 97ba
000001e0: a584 0cbe 05f3 c1bb f045 1bbd 91a1 32bd
000001f0: 0606 f33d 6cc2 8dbe 7d43 343d d5b4 72be
00000200: d45a fe3d cee8 c5bd d513 813d d8a9 f7bd
00000210: 4fdc 2abd 8eed e4bd 1487 303e 9fc3 d23b
00000220: dc23 203e c121 fc3c 5be6 153d 690c 563d
00000230: dc25 08be 9f2d 69be c034 4abd 1c10 acbd
00000240: d7bf 2bbe d5d7 153c 09d0 8ebd 165e d83d
00000250: 3c4f 2e3c 8e4a a5bd 7cdb 653e 3bae a7be
00000260: e618 c3bd 9f16 533b 7684 94bc cf55 be3d
00000270: 7c61 ae3d 7628 bbbd aa98 2abd c16e 3b3e
00000280: 60b9 d83d 3457 003e 7023 9cbd 42c2 88bc
00000290: 9330 473d fa1e 333d 6088 643d dd2a 0c3d
000002a0: 1a13 833d 3f9b 243d ddac eebc 5a21 b13c
000002b0: 6bfe 34be f17c 5cbc 023b 22be b1bc 3ebd
000002c0: 096b 523c 9cb8 41bd d743 813d 7c19 523d
000002d0: 015c 70bd fde1 94bc 03a5 ea3d de53 97be
000002e0: 1fd5 13be dc08 55bb 0a8e 55bd cf5e 063e
000002f0: 6cb6 163c f156 973c a759 47bd 5b45 f43d
00000300: b0af 153e d07a 61be ad01 6a3d 08f3 d4bd
00000310: 9075 7d3d 32d0 e03d 29b2 15bd 009b ae3d
00000320: 58de 703d d474 82bd 6c36 8e3e c02a 243d
00000330: 5a17 31bc edeb d53d 39e5 563e c5f2 c6bd
00000340: 5b1f 45be 40a7 2a3e 9c00 643d 7d3e e13d
00000350: 4731 ab3c 3853 8b3d 7472 a6bd 7df8 fa3c
00000360: 6b84 c3bd ca61 4fbe 2da7 4f3e f4d8 eb3c
00000370: 0180 803d 4df9 c2bd 8351 793e 3251 0bbe
00000380: 5f9f 893d 44c0 be3a ef2a a63d 7fc0 e63d
00000390: 78a0 503d cddb a7bd afd6 1ebe c036 973e
000003a0: 6ef5 353d 8cd7 073e b691 b4bc 480c 21be
000003b0: 48d6 15bc 1533 563d f5d9 653d 1f03 4d3e
000003c0: 861f 30be 4a56 9dbd 40e9 173e 8475 62ba
000003d0: b0d1 04be db3d 77bd 01bf 1abd 793b 623d
000003e0: 693f 2ebe ab8f c73c e21b d53d ae73 1a3e
000003f0: 4a64 9b3c 1097 003d 34c0 dcbc d31b ef3d
0.03753715 -0.10024783 -0.12828487 0.033716675 0.10794144 -0.04101601 -0.077986486 -0.007143782
0.036757074 0.0021555407 -0.10048498 -0.12946889 -0.06607287 -0.09852638 -0.28849944 -0.07607321
-0.059685525 -0.13911138 -0.114371434 0.20906243 0.025727987 -0.0007246927 -0.07796814 -0.16419604
0.06665115 0.07696138 0.018141393 -0.2852142 -0.022754455 -0.17047538 -0.0074683833 0.16590334
-0.0076641752 -0.15726922 -0.12810233 -0.0075920955 0.045852814 -0.024765499 0.024857061 0.03193991
-0.14176919 0.09916015 -0.047187187 -0.10278618 0.07994445 0.19073653 -0.20862034 0.004125649
-0.004801313 0.052499242 -0.16872086 -0.04363756 0.01469756 -0.05609964 0.03513822 -0.11370871
-0.024514403 -0.09392736 0.016412357 -0.03428364 -0.10890441 0.03181533 -0.17882927 0.17685091
-0.11918643 0.08439563 -0.021234315 -0.10147126 -0.0080934595 0.06174182 -0.051759735 -0.008516707
-0.103409365 -0.12257036 -0.015311822 -0.01544561 -0.051632687 -0.25558585 -0.18764116 0.06683866
0.014329946 0.030881079 0.02781963 -0.007870766 -0.10641968 -0.20589316 0.07103639 0.042642303
-0.28867865 0.04259347 -0.04825609 -0.16036108 -0.04905681 0.18809576 0.19400328 -0.032317746
0.120925345 -0.07532992 0.1010293 -0.018223388 -0.17172985 0.055411022 -0.10449635 -0.10061628
-0.05811718 -0.06913053 -0.04018345 0.03996262 -0.11817827 0.051096722 -0.115958825 0.03836261
-0.0008705753 -0.1684854 -0.10308856 0.021904726 -0.12715459 -0.056712396 0.001802123 -0.0011537912
-0.13722475 -0.0059188628 -0.037908494 -0.043611113 0.11866383 -0.27687395 0.044009674 -0.23701794
0.12419668 -0.096635446 0.06302611 -0.12092942 -0.04171401 -0.111781225 0.17239028 0.0064320113
0.1563868 0.030777814 0.036596637 0.05225793 -0.13295692 -0.2277131 -0.049366713 -0.0840151
-0.167724 0.009145697 -0.06973273 0.105648205 0.010639008 -0.08070861 0.22447008 -0.32750115
-0.095262334 0.0032209528 -0.018129569 0.092937104 0.085146874 -0.09138577 -0.041649498 0.18303968
0.105822325 0.12533265 -0.07623947 -0.016694192 0.04863031 0.043730713 0.05579412 0.034220565
0.06400128 0.040187117 -0.029135162 0.021622349 -0.17675178 -0.013457523 -0.15842822 -0.04656667
0.012842902 -0.047295198 0.063117675 0.051293835 -0.05868149 -0.018174166 0.11457255 -0.29556173
-0.14436768 -0.0032506501 -0.052137412 0.13122104 0.009198766 0.018474074 -0.048669484 0.11927291
0.146178 -0.22019506 0.057130504 -0.10397917 0.061879694 0.1097721 -0.03654686 0.08525658
0.058805794 -0.063699394 0.27775896 0.040079832 -0.01080879 0.1044539 0.20985879 -0.09714273
-0.19250242 0.16665363 0.055664644 0.10998247 0.02089752 0.06802982 -0.08127299 0.030636067
-0.09546741 -0.20252147 0.20278616 0.028789975 0.06274415 -0.095202066 0.243475 -0.13605192
0.06719851 0.0014553149 0.08113658 0.112671845 0.050934285 -0.081962205 -0.15511583 0.29533958
0.044423513 0.13265818 -0.022042137 -0.15727341 -0.009145327 0.05229481 0.056116063 0.20020722
-0.17199525 -0.07682474 0.14835072 -0.0008638727 -0.12970614 -0.060361724 -0.03777981 0.0552325
-0.17016377 0.024360498 0.10405709 0.15083191 0.01896872 0.031394064 -0.026947118 0.11675229

weight f4 [100]
00000000: 756e 6b3f 64ee 6a3f 0356 433f d73a 563f
00000010: ad2c 443f eb9a 683f 0598 7e3f 508b 0d3e
00000020: 354b 7b3f 8e95 2f3f b3dd 5f3f f07d 563f
00000030: d0cf 423f 3524 723f a47f 5d3f 3f0c 5a3f
00000040: f442 533f 47cc 5d3f ef08 853f 75bd 833f
00000050: bd2b 593f 86fd 6a3f 9fb8 813f c97d 7f3f
00000060: 4713 733f 9f1f 403f c4b1 523f 8c1a 653f
00000070: e14d f13e 1315 593f 7526 203f effe 1a3f
00000080: 476e 583f 55b7 7c3f 3544 6d3f 66b7 803f
00000090: f064 c33e f395 7a3f 1c8e 513f defa 563f
000000a0: 1f72 a73e 1a38 873f f5aa 513f 33ac 663f
000000b0: b38d 543f 2698 143f 42de 4a3f 1889 3c3f
000000c0: 7db1 373f b7a8 1f3f e2fd 533f 74d9 673f
000000d0: a145 4b3f 123a 993f 4c50 2b3f aded fe3e
000000e0: 0cf5 663f efe1 5f3f 05c9 883f 4463 493f
000000f0: 19f6 6a3f 6889 833f e9b9 723f 9f7d e03e
00000100: d81b 2d3f eb22 6f3f 5afc 523e 33df 523f
00000110: 17cf 6a3f 66c0 173f aee8 493f c7e6 5b3f
00000120: 6d1a 4a3f 628d 653f 36ab 4b3f ef24 8f3f
00000130: 8b55 ec3e ac4f 683f 89be 5a3f 6f9c 703f
00000140: 42a9 883f 3205 843e b7ed 853f fa22 6a3f
00000150: c984 5d3f e2c0 573f 1f16 4f3f d748 933f
00000160: 569a 453f 9750 a43e 33ec 873f 8034 773f
00000170: bcb3 713f bd64 333f 8d25 4e3f 72a1 753f
00000180: 7576 723f e123 f13e 5a45 7b3f b0c2 553f
0.9196542 0.91770005 0.7630312 0.8368353 0.7663067 0.90861386 0.99450713 0.13822675
0.9816163 0.6858758 0.8744766 0.83785915 0.76098347 0.945865 0.8652289 0.85174936
0.8252404 0.8663983 1.0393351 1.0292193 0.84832364 0.91793096 1.0134467 0.9980131
0.9495129 0.7504825 0.823025 0.8949363 0.4712973 0.8479778 0.6255868 0.6054525
0.8454327 0.9871724 0.926822 1.0055969 0.38162947 0.97885054 0.81857467 0.8397654
0.32704255 1.0563996 0.81901485 0.90106505 0.83028716 0.5804466 0.7924539 0.7364669
0.717552 0.62366813 0.8280927 0.9056618 0.7940312 1.1970847 0.669194 0.49790707
0.9021766 0.8745412 1.0686346 0.7866709 0.91781765 1.0276308 0.94814926 0.4384584
0.6762061 0.93412656 0.20604077 0.82371825 0.91722244 0.5927795 0.78870666 0.85899013
0.7894657 0.8966886 0.7955812 1.1183146 0.46159014 0.9074657 0.85446984 0.939887
1.0676653 0.25785214 1.046317 0.9145962 0.8653074 0.8427869 0.8089313 1.1506604
0.7718862 0.32092735 1.0618957 0.96564484 0.9441488 0.7007559 0.8052605 0.9594947
0.94712 0.47097686 0.981527 0.83500195

bias f4 [100]
00000000: ed7f dc3d 89b1 cd3d 4574 2ebe 0aea dcbd
00000010: c260 f7bd 3967 ce3d 4b1a 8bbd 0c1d bc3c
00000020: 12d7 183e da24 2fbe 69f4 093e 6688 1e3d
00000030: ee1b b73d bbfd 253e 66ef 06be 0504 dabd
00000040: 6c52 d0bd df02 e6bd 7501 223e b58d 1e3e
00000050: 8cb7 b7bd 0493 e3bd 2082 393e 7250 fcbc
00000060: 5dcd bb3d 69f1 243e a85d 1c3e 3316 0bbe
00000070: ba0d d73c dad3 b6bd 5c69 2e3d d263 ba3d
00000080: d7e4 c3bd 0887 2b3e 789a 02be 8220 253e
00000090: 0bef 263c 7c1e d93d f7f3 abbd 579c 0fbe
000000a0: 00f1 d2bc 54c2 153e b65d 983d 3cfe 393d
000000b0: d932 273e 4c1c c2bd 9f67 bf3d 6071 05be
000000c0: 4e5b d9bd d346 95bd 858e d33d e037 cf3d
000000d0: 7fc2 d8bd 7d8a 233e b101 cebd f31a fabd
000000e0: 31a7 d9bd 655e e73d d682 513e 324a 093e
000000f0: e2b5 fd3d 07de 0b3e ed79 153e 4c9e 02bc
00000100: b312 81bd 4df3 1e3e 05e4 abbc 6a9f 043e
00000110: c191 bf3d 5245 c0bd e3d1 03be 6d2d 7cbd
00000120: bf3e 05be 67dd d7bd 71bf f6bd c10f ee3d
00000130: 5bed d7bd 9ef7 823d d9ce e0bd 3b76 1ebe
00000140: a743 3c3e 9e46 b7bd e67d 7a3e c2f9 263e
00000150: 3310 1e3e d3b8 03be 88a7 c83d 4cfb 713e
00000160: 5041 003e 2ce9 d7bd 95ed 1f3e 33b4 1f3e
00000170: 32d6 07be d492 ff3d 8e06 47be d4bc 1d3e
00000180: c0bb 05be f0c1 7fbd 1aeb 063e ad33 173e
0.107665874 0.10043628 -0.17036541 -0.10786827 -0.12079002 0.10078282 -0.06792124 0.02296307
0.14925793 -0.17103902 0.13472141 0.0387043 0.08940874 0.16210072 -0.13177261 -0.10645298
-0.10171971 -0.11231016 0.15820868 0.15483744 -0.08970556 -0.111120254 0.18116045 -0.030800078
0.09170029 0.16107716 0.15270102 -0.13582687 0.026251663 -0.08927126 0.042580947 0.091010705
-0.09565132 0.16750729 -0.12754238 0.16125682 0.010188828 0.106015176 -0.08396142 -0.14024483
-0.025749683 0.14624912 0.07439749 0.045408472 0.1632799 -0.094780535 0.09345936 -0.1303153
-0.10613118 -0.07288899 0.10329918 0.10118079 -0.10583972 0.15970798 -0.10058916 -0.122121714
-0.10627592 0.11297301 0.20460066 0.1340721 0.12388207 0.13658915 0.14597292 -0.007972311
-0.06302395 0.155225 -0.020982752 0.12951437 0.09353972 -0.09388222 -0.12873034 -0.06156676
-0.13012217 -0.10540276 -0.12048233 0.116240986 -0.10543319 0.063948855 -0.10976953 -0.15474789
0.18385182 -0.08949016 0.24462089 0.16306213 0.15435867 -0.12863474 0.09797579 0.23631018
0.12524915 -0.10542521 0.15617974 0.15596084 -0.13265303 0.12479177 -0.19436094 0.15404063
-0.13059902 -0.062440813 0.13175622 0.14765806

running_mean f4 [100]
00000000: 15c7 af3e 809e 433f bd78 233f edb7 ea3e
00000010: eea2 203f afaa bf3e ead2 b53e 9c2f ba3f
00000020: 9ac0 693f f22a 543e c133 0e3f 5b92 9d3f
00000030: a09e 273e a0e3 533f bf19 f73e 2177 2f3f
00000040: 62d6 013e 5d8a ee3e 4bb0 4f3f d5d7 9f3e
00000050: 8bdc a73e 1d24 0f3f a646 b43e e42b 863e
00000060: 7dfb 973f 8f58 793f d3e0 533f 9947 3e3f
00000070: c386 593f 925f ae3f 93c4 af3f 6e0e d73e
00000080: a3c5 b93e bbe1 d73e bbdd ce3e 706a 483f
00000090: 308d 303f b6ab 5c3e 1bfc 493e e8d1 1c3f
000000a0: 2fa6 173f 2dc2 c23e 780e 243f 1507 513e
000000b0: 6557 8a3f 08df 6d3f 5574 c73e 11be a23e
000000c0: 4e66 593e 6567 563f a13c 8b3f e014 063f
000000d0: 6fc1 cc3e 128b 403e 1a25 cc3e 60e5 503f
000000e0: e2ea df3e 5951 143f 66f4 323e 7822 5a3f
000000f0: 17af de3e 6414 d23e e9d5 f23e e4ef e13f
00000100: aaf5 033e 82fd de3e 0588 323f 9777 9c3f
00000110: 8d8d 883e 951d 863f 6f2a a53e 5e78 e13e
00000120: 979b 0e3f 3325 8a3e e9aa ee3e 6189 973e
00000130: fc53 e43e 350d a53f 8035 803e d04d de3e
00000140: adbc cc3e 823c 823f 905c 003f f7ed ef3e
00000150: 2341 8a3f 6245 283f e516 ad3f c85c 753e
00000160: 5788 b43f 27f5 193f 2294 8c3e 9f83 ce3e
00000170: bcb3 e63e e786 813f 097f 1b3f 2b6b b13e
00000180: 848a c23e aa3d 8b3f f44d b13e e63a c83f
0.34331575 0.76413727 0.63856107 0.4584345 0.6274861 0.3743491 0.35512477 1.4545779
0.9130951 0.20719507 0.5554772 1.2310289 0.16369104 0.82769203 0.4826183 0.6854115
0.12679437 0.46589938 0.81128377 0.31219354 0.32785448 0.5591448 0.3521015 0.2620536
1.1873623 0.97400755 0.8276493 0.74328 0.84971255 1.3622916 1.3731865 0.42003196
0.36283597 0.42164406 0.40403542 0.7828741 0.68965435 0.21549878 0.19725077 0.6125779
0.5923795 0.3803877 0.6408458 0.20412858 1.0807921 0.92918444 0.38955942 0.31785634
0.21230432 0.8375152 1.0877877 0.523756 0.39991328 0.18803051 0.39872056 0.816
0.4373389 0.57936627 0.17476043 0.85208845 0.43492958 0.41031182 0.47428825 1.7651334
0.12886682 0.43552786 0.697388 1.2223996 0.26670495 1.0477778 0.32258937 0.44037145
0.5570616 0.26981506 0.4661477 0.29597 0.44595325 1.2894655 0.25040817 0.4341874
0.39987698 1.0174716 0.5014124 0.4686124 1.0801128 0.6573087 1.3522612 0.23961174
1.4104108 0.601397 0.27456766 0.40334794 0.45059 1.0119294 0.60740715 0.34652075
0.37996304 1.0878193 0.34629786 1.5642974
