AutogluonModels/ag-20260122_050556/models/NeuralNetFastAI/model-internals.pkl (torch, 233121 bytes, 16 tensors)

weight f4 [43]
000000 dc a4 a2 3f 63 43 26 3f c6 c5 37 3f b0 d5 2a 3f
       1.2706561 0.64946574 0.71786153 0.6673231
000010 31 b1 5d 3f 37 d9 18 3f b7 0f 46 3f cf 52 08 3f
       0.865985 0.59706444 0.7736773 0.53251356
000020 1c 4d 50 3f e5 0b 5f 3f 2c 5f 68 3f 39 74 27 3f
       0.8136766 0.87127525 0.9077022 0.65411717
000030 d3 ca 36 3f bb 34 48 3f fd 03 29 3f 5a e9 71 3f
       0.71403235 0.7820546 0.6602171 0.9449669
000040 1c e7 0f 3f 3b f8 d9 3e 57 90 f2 3e ed d1 21 3f
       0.5621202 0.42572197 0.47375748 0.63210946
000050 ed 6d 48 3f 42 f3 64 3f 1e a0 3b 3f f6 fd 2e 3f
       0.78292733 0.8943368 0.73291194 0.68356264
000060 6b cc 19 3f 6c af 46 3f 85 1f 83 3f 44 92 21 3f
       0.6007754 0.7761142 1.0243994 0.6311381
000070 44 ec 65 3f bb 70 84 3f 52 6b 6b 3f 51 3a 95 3f
       0.8981364 1.0346903 0.9196063 1.1658422
000080 56 13 5f 3f f9 44 a6 3f 78 a3 53 3f 61 26 be 3f
       0.8713888 1.2989799 0.8267131 1.4855462
000090 5f de 3f 3f 2c 0b 27 3f e5 e9 71 3f 52 83 77 3f
       0.74948686 0.6525142 0.9449752 0.96684754
0000a0 d0 43 5f 3f e7 c4 b3 3f 17 01 7e 3f
       0.8721285 1.4044465 0.9922041

bias f4 [43]
000000 b0 38 b2 be 57 e9 f2 3d 21 16 4f 3d 4b 9d 4c bf
       -0.34808874 0.11860912 0.050558213 -0.7992751
000010 e1 9b 2a 3e 46 78 49 3e a1 46 e3 be 02 fb a6 3e
       0.16661026 0.19674787 -0.44389823 0.3261338
000020 08 a3 65 bf b7 d7 b3 3e 8e 40 cf be e5 96 e1 be
       -0.8970189 0.35125515 -0.4047894 -0.44060436
000030 f9 5f 26 bf dd 23 e2 be cc 0b 31 be 7f 5b 3e be
       -0.6499019 -0.44167987 -0.17289656 -0.1858959
000040 0f 1f 7f bd 81 93 c8 be 97 47 70 3c 18 ad d0 3e
       -0.06228548 -0.39175037 0.014665506 0.4075706
000050 4c c7 e2 bd 90 5e a6 be e8 fc 4e be f5 5c 28 be
       -0.11073169 -0.3249402 -0.20213664 -0.1644171
000060 32 7b a8 bd 2a 9c 0b bf cc 54 82 be 93 d6 6a bc
       -0.08226623 -0.5453516 -0.2545532 -0.014333385
000070 9d 38 60 bf 1f 39 66 3d 05 a9 23 bf b5 00 2d bf
       -0.87586385 0.05620682 -0.6392978 -0.67579204
000080 3e 5c a1 3e 39 99 4e bf 2c 64 29 bf 87 59 56 bf
       0.31515688 -0.8070255 -0.66168475 -0.8373036
000090 ec 16 86 be 7d 7e a8 3d b3 6d 28 be c6 5f 0c bf
       -0.26189363 0.08227251 -0.16448097 -0.5483364
0000a0 03 97 df 3e 6f 9d 02 3f 27 03 eb 3e
       0.436699 0.51021475 0.45900843

running_mean f4 [43]
000000 77 19 93 3b bc ae 82 bb 69 12 2b bc c7 2c bf 3a
       0.0044891196 -0.003988115 -0.010441401 0.0014585488
000010 ee 80 cf bb f0 49 9e 3b e3 ee 06 3c 4e a9 e5 bb
       -0.0063325083 0.0048305914 0.008235666 -0.007008708
000020 97 f9 07 3b 55 a2 3b bb 5b 11 82 bb 09 7c f8 3b
       0.0020748132 -0.0028630693 -0.003969354 0.0075831455
000030 c5 33 aa bb 02 3b b2 3b 10 9e 47 bb c4 39 20 bb
       -0.0051941597 0.005439163 -0.0030459203 -0.0024448493
000040 e7 40 26 3b 3f 0e e3 3a 99 53 21 3c 5e 6c 3e bc
       0.0025368275 0.0017322971 0.009846591 -0.011622516
000050 24 35 aa 3b 30 44 21 bb 9e 38 69 3b 92 57 86 bc
       0.005194323 -0.0024607293 0.0035586725 -0.016399179
000060 ba 96 64 b9 14 d0 55 bc 1a c5 9f 3c d3 07 d4 3a
       -0.00021799924 -0.013050098 0.019503165 0.0016176648
000070 70 2d cb 3c 8d d4 85 bb b7 e2 ae 3c c7 b7 a4 3c
       0.02480194 -0.004084176 0.02134834 0.020107163
000080 a4 7a 62 3a 96 09 a3 3c 18 f7 fb bb 25 84 9f 3c
       0.00086394907 0.019902032 -0.007689368 0.019472191
000090 b5 a1 3f ba 06 7a 61 bb 67 e9 07 3c 95 b4 1f bc
       -0.0007310168 -0.0034405007 0.008295394 -0.009747644
0000a0 38 9f 0d 3c ea 2a a5 bc a4 d9 26 bc
       0.008643918 -0.020162065 -0.0101837255

running_var f4 [43]
000000 3b 50 81 3f cd 46 78 3f 6a 80 77 3f 34 38 76 3f
       1.0102609 0.96983033 0.9668032 0.9617951
000010 74 8b 80 3f f3 f2 76 3f bb 13 78 3f 11 e9 82 3f
       1.0042558 0.9646446 0.96905106 1.0227376
000020 35 ae 79 3f b7 14 7d 3f ba dc 7a 3f 5b 30 7c 3f
       0.97531444 0.98859733 0.9799305 0.98511285
000030 da 2b 83 3f 69 3b 7a 3f 5f 93 7e 3f 1e 8a 7b 3f
       1.0247757 0.977469 0.9944362 0.98257625
000040 5a cd 76 3f 72 71 85 3f f4 98 79 3f 84 d5 7b 3f
       0.9640709 1.0425246 0.9749901 0.98372674
000050 62 0e 78 3f 08 d7 7e 3f 84 0d 82 3f ee c8 80 3f
       0.96896946 0.9954686 1.0160375 1.0061319
000060 35 6a 81 3f bb 08 81 3f 75 11 7a 3f 99 98 81 3f
       1.0110537 1.0080789 0.9768289 1.0124694
000070 25 6e 7b 3f 08 3d 80 3f 05 ff 7a 3f ed 6e 7c 3f
       0.9821494 1.0018625 0.9804538 0.9860676
000080 2b 7a 81 3f ca 29 7d 3f 3c b4 80 3f 91 cc 7b 3f
       1.0115408 0.9889189 1.0055003 0.9835902
000090 d9 17 80 3f 3c 31 81 3f 75 a6 7e 3f 70 1f 7f 3f
       1.0007278 1.009315 0.99472743 0.99657345
0000a0 3a ed 7e 3f 4e 72 79 3f 3b 8c 76 3f
       0.9958073 0.9744004 0.96307725

weight f4 [200, 43]
000000 90 f5 fe 3b 5e 02 1c 3e ae b6 1c be b6 f7 e2 bd
       0.007780738 0.15235278 -0.15304062 -0.11082403
000010 f0 ad 41 be fd 29 60 bc cb f7 27 3b 7a f1 16 3d
       -0.18914008 -0.013681886 0.0025629874 0.036851384
000020 b3 d8 1f be b9 9d 95 3b 1e 0d 41 be 49 41 a1 bd
       -0.15610008 0.004565921 -0.1885266 -0.0787378
000030 3f dc 42 be 7e 07 59 be 2e c1 83 3d b5 80 a6 bd
       -0.1902933 -0.21194264 0.064333305 -0.08130018
000040 cd 81 01 3e ee 1e 33 3d 4a 02 be bd cf fa e3 bc
       0.12647171 0.04373067 -0.0927778 -0.027829556
000050 b8 d4 8f 3d 03 15 8f 3e 48 e0 4d bc 25 7f 37 3e
       0.07022995 0.27945718 -0.01256568 0.17919596
000060 b3 6e c0 bd af 7a ce 3d 22 d2 7d 3e e1 a0 30 be
       -0.09396114 0.10081994 0.2478719 -0.1724887
000070 fa 15 c3 bd cf b7 63 be 7d aa 66 bd c7 97 63 3e
       -0.09525676 -0.22238086 -0.056314934 0.22225867
000080 34 43 44 be b4 0a 0b be 22 5a 30 be b9 3a 2f be
       -0.19166261 -0.13578302 -0.17221883 -0.17112245
000090 4f 79 72 bd 00 ac 5b bd 76 bf cf 3d f3 29 74 3d
       -0.05919772 -0.05363083 0.1014394 0.05961032
0000a0 18 91 6c 3c 23 b9 5e be 3d 5b 7c be 4b a9 aa be
       0.01443889 -0.21750312 -0.2464418 -0.33332285
0000b0 58 c0 fe bd 81 31 5b bd e9 f3 5e 3c 9b f6 4d 3e
       -0.124390304 -0.053514007 0.013607957 0.20113604
0000c0 da f0 fb bd fd 77 c9 3a ea 91 50 3e 90 06 69 3d
       -0.12301798 0.0015370842 0.20368162 0.056891024
0000d0 79 95 40 bd ab 50 0c bd ec 5d 10 bc 59 06 61 3c
       -0.04701755 -0.03425662 -0.008811455 0.013734424
0000e0 d4 f3 83 3b 99 c8 08 be 5a c8 07 be fd d5 13 be
       0.0040268693 -0.13357772 -0.13260022 -0.14437099
0000f0 46 95 36 3e 28 05 c3 3c ce 2f cd bd f0 c4 41 bc
       0.17830381 0.02380617 -0.10018884 -0.011826739
000100 aa d9 f0 3a 0d ae 72 3d 9d b6 30 be 42 24 de 3d
       0.0018375416 0.05924802 -0.17257161 0.108467594
000110 db bf 2b be 0d 99 05 3e b2 b2 c8 3c f2 50 50 be
       -0.16772406 0.13046665 0.024499271 -0.20343378
000120 7a 6c f8 3c 64 96 e1 ba 77 e2 b9 bd 9d db a7 3e
       0.030325163 -0.0017210958 -0.09076398 0.3278474
000130 4d 0f bf 3c e2 b2 20 be 37 86 0d bd fd 9a 56 be
       0.023322726 -0.15693238 -0.034551825 -0.20957561
000140 f4 cc d1 3c c9 6b 6d bd 74 d1 10 3e ce 0b 88 be
       0.025610425 -0.05796412 0.141424 -0.26571506
000150 71 d2 31 3e 5b 23 16 3e bc d2 ca be ec c8 42 be
       0.17365433 0.14661925 -0.39613903 -0.19021958
000160 7a 74 d1 bc 46 a7 78 b8 be f0 38 3e 33 93 74 3e
       -0.025568236 -5.9283593e-05 0.18060586 0.23884277
000170 d2 b7 99 3e f1 fb 2e 3e fe 65 3b be 48 54 51 be
       0.30023056 0.17088296 -0.18300626 -0.20442307
000180 11 e3 4c bc 47 ce 10 3e 27 dc 6f 3d 32 2f 6e bd
       -0.012505309 0.14141189 0.058559563 -0.058150478
000190 ec a3 f4 3d 49 3e 80 3d 5c 49 2a bd 71 3b 0b 3e
       0.11945328 0.0626188 -0.041573867 0.13596894
0001a0 4c 46 35 be 5f 9c e0 bc d2 1f fd bd da 51 7d be
       -0.17702597 -0.027418314 -0.12359585 -0.24738255
0001b0 68 76 c4 3c d2 7d 18 3d aa 48 30 bd 5f 69 df 3d
       0.023982242 0.037229367 -0.043038048 0.1090877
0001c0 a1 0e 2f 3d 66 f0 ee 3d e0 5a 7b 3e 83 ed 7e be
       0.04273856 0.11666946 0.24546385 -0.24895291
0001d0 86 fb 0b 3e 24 c3 61 bd 5c 9e ff 3d 6c 6b 24 3e
       0.13670167 -0.05511774 0.124813765 0.16056603
0001e0 25 b5 0e bd 28 87 e9 3d e0 ad 14 be 44 23 87 3c
       -0.03484072 0.11402732 -0.14519453 0.016496308
0001f0 4d 5a a6 be 68 6c b5 3d a2 01 3b be 5b 9f 31 be
       -0.3249077 0.088585675 -0.18262342 -0.17345946
000200 b1 19 ab bc 34 1a 58 3c 43 b3 7f be 86 f8 10 3d
       -0.020886274 0.013189841 -0.24970727 0.03539326
000210 9e 49 bd bd 94 1d 0b be 34 83 02 3d a1 c8 10 be
       -0.09242557 -0.13585502 0.031863406 -0.14139034
000220 de bb ac 3d 97 42 b1 3c f1 bf 8e bd a1 b5 47 3b
       0.0843427 0.021638198 -0.06970204 0.003047325
000230 1f de 5f 3e 65 58 8f 3e 9d 36 bb 3d 4a 38 19 be
       0.21862076 0.27997127 0.09141276 -0.14962879
000240 b2 e2 58 be 79 0a 0d be b8 48 83 3e 34 19 ad 3d
       -0.21180227 -0.13773526 0.25641418 0.08452073
000250 02 4d 8f be fb ec 8f 39 4d 72 94 be 06 df 21 be
       -0.2798844 0.0002745165 -0.28993455 -0.15807733
000260 a6 b9 d3 bd 32 e4 24 3e cd a0 d1 3c 12 89 1d be
       -0.10338144 0.16102675 0.025589371 -0.1538432
000270 ba de 87 3e c2 da d1 bd 3a 89 59 be bc 6d bb bd
       0.26537114 -0.10246803 -0.21243754 -0.091517895
000280 3a db 12 3e 28 11 37 3d 72 48 31 bd e2 49 4f bd
       0.14341441 0.044694096 -0.04328198 -0.05060757
000290 ae 8d d9 bd 06 1f 75 bd 28 b7 a2 bb 76 c5 12 3e
       -0.106227264 -0.05984404 -0.0049656816 0.14333138
0002a0 3d e2 95 bd 2f 0a 73 bc 47 3e 9c 3e 6d 08 88 3d
       -0.07318542 -0.014833971 0.30516264 0.06642232
0002b0 fc 1a 0f 3e 2b b4 d7 3d 01 7e d6 bd 0d f2 cb 3d
       0.13975137 0.10532411 -0.10473252 0.09958277
0002c0 61 49 cd 3d 4f 12 0a 3c 4c 77 5b 3e 39 76 59 bd
       0.100237615 0.008427217 0.21432227 -0.05309126
0002d0 e8 be f3 3d d7 e6 40 bc 41 d7 51 3e df 64 c4 3d
       0.11901647 -0.0117737865 0.20492269 0.09589552
0002e0 e9 13 f6 3d c5 2c 09 3e 10 52 b1 bc d1 ce 13 3d
       0.12015516 0.13395984 -0.021645576 0.036085907
0002f0 40 e4 2d be 03 d0 b3 3d c7 87 17 3e f0 6e 0d 3e
       -0.16981602 0.087799095 0.14797889 0.1381185
000300 1f 91 9f bd 59 e0 1d 3d e9 8f ce bd c1 45 a7 bd
       -0.077913515 0.038544033 -0.100860424 -0.081676014
000310 c0 a8 dc 3b 9c 5e be 3d c9 78 86 bd 9b af 06 bb
       0.0067339838 0.09295389 -0.06566007 -0.0020551446
000320 8b 43 06 bc 3a 42 09 3e d0 79 c2 bd 28 7d 80 bd
       -0.008194814 0.1340417 -0.0949589 -0.06273872
000330 66 8a d4 bd 44 a9 33 3e 13 e5 c8 3c 0a 3a 68 3e
       -0.1037796 0.17545038 0.024523294 0.2267839
000340 9d fa bd 39 d4 0d ad bb 4d 9e 27 3d c2 7e d3 3b
       0.0003623561 -0.0052811895 0.04092245 0.0064543197
000350 88 b7 a5 3c 49 d9 24 be ca d7 38 be fa e8 ba 3d
       0.020229116 -0.16098513 -0.18051067 0.09126468
000360 57 a9 26 be 07 91 d5 bb 22 50 93 3d f1 9d 35 be
       -0.16275536 -0.0065175327 0.071930185 -0.17736031
000370 a4 7f 3e be 7e 24 7e 3e d2 71 aa 3c ab c7 06 3e
       -0.18603379 0.24818608 0.020806227 0.13162105
000380 3c 03 45 be 2c ec 53 3d 64 07 ec 3c 1b 16 0a 3d
       -0.19239515 0.051738903 0.028812118 0.033712488
000390 35 d2 b0 3d 05 53 e8 bc 5c c4 14 3d dc f1 9f 3d
       0.08633844 -0.0283599 0.036320075 0.07809803
0003a0 77 46 20 3d 8b 6e 11 3e 21 19 b5 3d d8 b2 fa bd
       0.0391297 0.14202325 0.088426836 -0.12241143
0003b0 67 ec 3a 3d ba 1f 1f be e1 82 23 be e0 73 0b 3d
       0.045635607 -0.15539446 -0.15967895 0.034046054
0003c0 69 09 a2 3c a6 c2 29 3e 6b fa 73 3c 30 82 17 3e
       0.019779878 0.16578159 0.014891247 0.14795756
0003d0 eb 2b 91 3d 37 27 9e ba 1e c7 c8 3e c5 03 2b be
       0.07088455 -0.001206613 0.39214414 -0.16700657
0003e0 f8 46 c1 3e d8 10 38 3d 04 3b ba 3e 96 19 26 3e
       0.37749457 0.04493794 0.3637315 0.16220698
0003f0 32 c0 54 3e 9a e7 49 bc bb a1 19 bd 67 12 d0 bd
       0.20776442 -0.0123232845 -0.037507754 -0.1015976

weight f4 [200]
000000 21 0c 89 3f f8 af 77 3f 94 af 8f 3f a2 08 4f 3f
       1.0706826 0.9675288 1.1225457 0.8087255
000010 37 92 74 3f 8e 7d 76 3f 76 0b 38 3f 5d 32 6d 3f
       0.95535606 0.9628533 0.7189249 0.92654973
000020 fd 8a 84 3f 2d 3f 87 3f 6d f5 95 3f 57 1a 85 3f
       1.0354916 1.0566155 1.1715523 1.0398663
000030 65 a2 7f 3f 7e 4c 8b 3f 50 9e 67 3f 81 49 69 3f
       0.9985717 1.0882719 0.9047594 0.91127783
000040 07 80 67 3f 28 84 86 3f 4d 29 79 3f 85 b1 73 3f
       0.9042973 1.0509081 0.97328645 0.9519275
000050 6e e9 6e 3f 02 02 7c 3f 47 12 7b 3f a3 a1 68 3f
       0.93324935 0.98440564 0.98074764 0.9087164
000060 85 95 9c 3f 92 b8 9d 3f 4a 14 91 3f 84 31 5a 3f
       1.223313 1.2321951 1.1334317 0.85231805
000070 1d 31 67 3f 8f af 3a 3f 3b 93 80 3f d5 8c 75 3f
       0.90309316 0.7292413 1.0044931 0.9591802
000080 53 9b 6d 3f 83 a2 5f 3f 8c 1b 61 3f 2b 87 85 3f
       0.9281513 0.8735735 0.8793266 1.0431875
000090 46 2e 91 3f fe 05 83 3f 28 cd 57 3f 47 3c 81 3f
       1.1342247 1.0236204 0.8429742 1.009652
0000a0 e3 0e 8d 3f e7 47 85 3f 97 19 7c 3f f3 50 63 3f
       1.1020168 1.0412568 0.98476547 0.88795394
0000b0 9c d3 79 3f 25 0a 44 3f c7 17 6a 3f 4e d1 6a 3f
       0.97588515 0.7657798 0.9144253 0.91725624
0000c0 dc 72 41 3f 82 98 83 3f 4d dd 7b 3f 69 70 84 3f
       0.75565886 1.0280917 0.98384553 1.0346805
0000d0 35 6a 7f 3f df 33 41 3f 4d 8e 74 3f 60 29 7f 3f
       0.99771434 0.75469774 0.95529634 0.9967251
0000e0 f1 c7 ab 3f 4d 3e 5c 3f 14 74 7c 3f 36 80 48 3f
       1.3420392 0.86032563 0.9861462 0.78320634
0000f0 bd fe 6f 3f 66 c3 77 3f 8c 5f 91 3f f6 77 a5 3f
       0.93748075 0.9678253 1.1357284 1.2927234
000100 30 54 82 3f a8 87 74 3f d2 0e 90 3f 17 3c 91 3f
       1.0181942 0.95519495 1.1254523 1.1346463
000110 41 9e 9c 3f b3 b2 7c 3f 01 7c 7d 3f 89 bd 7b 3f
       1.2235795 0.98710173 0.9901734 0.9833608
000120 f5 18 43 3f db 0e 53 3f 7c 0b 9f 3f 4a b7 b0 3f
       0.76209956 0.8244454 1.242538 1.3805935
000130 78 5d 86 3f 7d 7d 88 3f 4a 49 80 3f 2e ea a4 3f
       1.0497274 1.0663296 1.0022366 1.2883966
000140 06 76 75 3f 74 71 72 3f 12 75 90 3f 8c f6 9c 3f
       0.95883214 0.94704366 1.1285727 1.226274
000150 74 b0 a2 3f f2 c8 94 3f e7 6a 6a 3f 34 24 93 3f
       1.2710099 1.1623824 0.9156937 1.1495423
000160 3a 6d 80 3f d2 44 58 3f d9 bd 68 3f 5e 9d 72 3f
       1.0033333 0.8448001 0.90914685 0.94771373
000170 4f 39 87 3f 56 e5 74 3f 78 54 84 3f a6 8d 63 3f
       1.0564364 0.9566244 1.0338278 0.88888013
000180 4e d6 82 3f 80 96 73 3f c2 65 4c 3f 56 00 46 3f
       1.0221651 0.9515152 0.7984277 0.7734426
000190 ab 01 60 3f 6d 2b 83 3f ab c1 96 3f 6c a8 82 3f
       0.87502545 1.0247627 1.1777853 1.0207648
0001a0 be ab 81 3f b5 ea 82 3f 82 3f 70 3f 06 4e 46 3f
       1.0130537 1.0227877 0.93846905 0.77462804
0001b0 d7 3f 60 3f eb fd 7e 3f 95 8b 83 3f 97 62 8b 3f
       0.8759741 0.996062 1.0276972 1.0889462
0001c0 6c bd 7a 3f d6 c8 9d 3f 8d de 92 3f 33 99 2b 3f
       0.97945285 1.2326915 1.1474167 0.6703064
0001d0 56 e2 7e 3f 46 ba 67 3f cb d5 4d 3f b3 79 75 3f
       0.9956411 0.90518606 0.8040435 0.95888823
0001e0 f8 bb aa 3f fc ec 6a 3f 0b 7a 93 3f 46 4f 86 3f
       1.3338614 0.9176786 1.152162 1.0492942
0001f0 96 86 a3 3f 41 56 95 3f 0f 60 8a 3f e6 f9 59 3f
       1.2775447 1.1666948 1.0810565 0.8514694
000200 c9 c4 3c 3f f0 a0 80 3f 52 58 70 3f de 65 8b 3f
       0.7373777 1.0049114 0.93884766 1.0890462
000210 55 fb 8d 3f f4 0a 87 3f 17 28 7f 3f e2 8b 77 3f
       1.1092325 1.0550218 0.9967055 0.9669782
000220 eb 00 76 3f da fc 7e 3f d9 e2 9c 3f dd d5 ae 3f
       0.9609515 0.9960457 1.2256728 1.3659016
000230 99 b5 58 3f 8e af 76 3f a0 56 78 3f f5 f7 90 3f
       0.84652096 0.96361625 0.9700718 1.132567
000240 32 3b 4a 3f 5b 50 54 3f 24 46 6d 3f 86 dd 76 3f
       0.78996575 0.8293511 0.9268515 0.9643177
000250 f4 d9 5d 3f 85 7f 76 3f 50 49 79 3f 8f 15 77 3f
       0.86660695 0.9628833 0.9737749 0.9651727
000260 9a 05 86 3f 22 0b 5d 3f bd e8 7d 3f c6 b1 69 3f
       1.047046 0.8634511 0.99183255 0.91286886
000270 ab 2f 70 3f 38 82 67 3f 10 e6 6b 3f 85 ec 94 3f
       0.93822736 0.90433073 0.9214792 1.163468
000280 a1 e1 83 3f bb 31 96 3f c6 f0 21 3f e6 6f 76 3f
       1.0303231 1.1733927 0.63258016 0.96264493
000290 de 4b 79 3f 13 30 8c 3f 79 f2 88 3f af 3f 27 3f
       0.9738139 1.0952171 1.0698997 0.6533155
0002a0 5b 46 52 3f 06 63 8b 3f f9 2a 82 3f 73 d2 7e 3f
       0.82138604 1.0889595 1.0169364 0.9953987
0002b0 95 a0 92 3f cc 37 94 3f 3a 68 86 3f 9a a7 73 3f
       1.1455256 1.1579528 1.0500557 0.95177615
0002c0 85 88 67 3f 28 18 80 3f ef 82 79 3f 55 db 7e 3f
       0.9044269 1.0007372 0.97465414 0.99553424
0002d0 47 9b 34 3f c9 8a 65 3f 5c fe 38 3f d8 16 79 3f
       0.70549434 0.89664894 0.7226312 0.9730048
0002e0 4d b7 4e 3f f4 23 83 3f 2a 3d 7a 3f ec 6d 82 3f
       0.80748445 1.0245347 0.9774958 1.0189795
0002f0 e9 f8 68 3f 8b c1 67 3f e1 7b 6a 3f 9e c1 94 3f
       0.91004807 0.905297 0.91595274 1.1621587
000300 67 57 96 3f e9 53 75 3f aa 8a 87 3f 43 d6 67 3f
       1.1745423 0.9583116 1.0589192 0.9056131
000310 3a eb 80 3f e1 02 52 3f c7 8c 41 3f 02 cf 34 3f
       1.0071785 0.8203564 0.75605434 0.7062837

bias f4 [200]
000000 13 25 11 3e d3 a4 a3 3e 03 8a aa 3e 98 67 ab bd
       0.14174299 0.31961688 0.3330842 -0.08369368
000010 1d 6a dd bd cd 11 f2 bd ec 0c a5 3d b2 03 a4 3d
       -0.10811255 -0.118198015 0.08059105 0.08008517
000020 8e 71 c5 3e b0 52 c6 be 5b ca ad 3e da 07 93 be
       0.38563198 -0.3873496 0.33943447 -0.28716928
000030 1e 37 b0 3e 37 db f8 bc 80 29 ec 3d 23 e4 53 be
       0.3441705 -0.030377967 0.11531353 -0.20692496
000040 dd 6b e4 bd 77 1f 09 be c4 a2 69 bd a8 0c c2 be
       -0.11153386 -0.13390909 -0.05703999 -0.3790028
000050 b2 5b a5 bd 55 85 a7 bd 76 1e 89 3e 89 7c 7c 3c
       -0.0807413 -0.08179728 0.26781052 0.015410551
000060 77 1d 93 be 7e d7 51 bd a6 f3 e8 bd 3e 95 d8 3d
       -0.28733417 -0.0512309 -0.11374597 0.10575341
000070 e7 dd f4 bc 60 97 97 3e 84 b7 63 bd 0e 43 93 bd
       -0.029890968 0.29607677 -0.055594936 -0.07190524
000080 e9 bf 5e be fb 81 e9 bd 45 2d 99 3e b6 82 9d bc
       -0.21752895 -0.11401745 0.2991735 -0.019227367
000090 90 71 31 3e 8f 80 1f bc eb 68 c1 3e e6 0f 86 bd
       0.17328477 -0.009735241 0.3777536 -0.06546001
0000a0 f1 0f d2 bd d7 de 9c bc 4e e4 99 3e f3 6b d2 3d
       -0.10256947 -0.019149227 0.30056995 0.10274496
0000b0 e6 6d 9f be 23 29 82 be 98 c6 4b be 29 ac 53 3e
       -0.31138533 -0.2542201 -0.19899976 0.20671143
0000c0 f9 c1 35 3e 4b f3 0f 3f 6d 96 6a bd 8c 8b b7 bd
       0.17749776 0.5623061 -0.057272363 -0.08962163
0000d0 17 43 1e 3d 9b 09 15 3f c1 f6 7f be 09 1e 0a bf
       0.0386382 0.5821778 -0.24996473 -0.5395208
0000e0 c8 d3 ae 3e 09 49 13 3e 10 ac 01 3e 92 81 87 be
       0.3414595 0.1438333 0.12663293 -0.26466042
0000f0 d0 a9 74 3e b4 88 24 bd f6 66 d9 3e 09 c6 91 be
       0.23892903 -0.040169433 0.42461365 -0.284714
000100 1d 36 37 3e 42 c3 84 bd 15 bf df be 23 3e 4b 3e
       0.17891736 -0.06482555 -0.43700472 0.19847922
000110 dc 5a 88 bd 2b 4d b9 3d 6c 43 6e be cc 7b d2 bd
       -0.06657955 0.09047922 -0.23267907 -0.10277519
000120 95 13 dc 3e ed e0 6c 3d 7d 66 25 3d 9d cb d5 3e
       0.4298369 0.057831693 0.040380944 0.41756907
000130 37 b7 4f be 90 8e 96 be bb f6 b1 be 67 67 d3 be
       -0.20284735 -0.29405642 -0.34758553 -0.41289827
000140 9e 0c 77 3c 66 13 c8 be b9 fa 03 3e 84 db a1 3e
       0.015078692 -0.390773 0.12888612 0.3161279
000150 67 dd 85 be b9 64 46 3e 8f ab a2 3e 73 1d 8b be
       -0.2614548 0.1937436 0.31771514 -0.27170905
000160 4d f2 58 3e 75 13 38 be 09 ca 52 3b ea 64 e7 3e
       0.2118618 -0.17976172 0.003216388 0.4519418
000170 e0 d4 5f be e6 17 2e be 6b bd a5 3e 47 20 62 be
       -0.21858549 -0.17001304 0.32371077 -0.22082625
000180 39 98 e6 3e 9b e3 fd 3d bf fc ac 3e 26 38 9e 3e
       0.45038012 0.12396928 0.3378658 0.30902213
000190 68 f0 52 be 0b 9d 3c 3e fc 7e 69 be 19 ed 1c 3e
       -0.2059952 0.18419282 -0.22802347 0.1532482
0001a0 94 21 e7 bd d2 c3 25 bd 9c df 61 bd 46 54 7b 3e
       -0.112857014 -0.040469952 -0.05514489 0.24543867
0001b0 c9 20 a5 bd 10 09 92 bd 25 b3 19 bd df da 10 be
       -0.08062894 -0.07130635 -0.03752436 -0.14145993
0001c0 5a 16 78 be 91 9c af 3e 72 81 eb 3d 83 af 34 3d
       -0.24227276 0.34299138 0.11499299 0.044112694
0001d0 2b 77 7a 3e af 05 6a 3e 8d 9e 13 3f d2 48 c1 bd
       0.24459521 0.2285373 0.57663804 -0.094377175
0001e0 40 d5 fa bd 00 3c b9 3d b6 e4 8d 3e 6c 6e 3f 3f
       -0.122477055 0.09044647 0.27713555 0.74777865
0001f0 02 6e 9f 3e 66 44 90 bd 08 ce 18 be e0 b0 2d ba
       0.31138617 -0.07044296 -0.14922345 -0.00066257827
000200 93 dd 0e 3e ea b1 96 bd c4 05 80 3e 21 99 b7 be
       0.13951711 -0.07358153 0.250044 -0.35859016
000210 71 16 01 3d 36 3a 86 bd bd 46 b0 3d 85 b2 bb bc
       0.031515542 -0.065540716 0.08607242 -0.022912273
000220 de 6d 90 3e 04 c7 69 3e 62 e3 ea be d9 63 f2 be
       0.28208822 0.22829825 -0.45876604 -0.47341803
000230 2a f1 de bd b6 8a b9 3d 9e dc 6f bd 6c 51 9d be
       -0.10885842 0.0905966 -0.058560006 -0.30726182
000240 f3 29 4e be b3 0c 90 bd 6e 11 87 bd 50 3b 4e be
       -0.2013319 -0.07033672 -0.06595121 -0.20139813
000250 00 f0 e0 3e a7 36 37 3d 3c a0 8e bd df f4 81 be
       0.43933105 0.044729855 -0.06964156 -0.25382134
000260 15 c3 df bd f4 6a 3b 3e e9 db 23 3e cc 14 3d 3e
       -0.10925881 0.18302518 0.16001858 0.18464965
000270 00 03 8a be e9 36 a7 3e a4 1c 0d be 77 5b 17 be
       -0.26955414 0.3265908 -0.13780457 -0.14780985
000280 75 a0 ae be cb 49 d9 3c a2 fa 73 3e 43 91 31 be
       -0.34106794 0.026524445 0.23826078 -0.17340569
000290 b8 0e 28 3e f1 4a 4d 3d 97 6c 18 be a9 51 4d 3e
       0.16411865 0.050120298 -0.14885174 0.20050682
0002a0 af ec 87 bd 67 d7 91 be 91 fa 17 be 4e 60 b8 be
       -0.06636941 -0.2848465 -0.14841677 -0.36010975
0002b0 62 e5 8d be f9 53 9b 3d ed 56 ac be 68 95 d0 be
       -0.27714068 0.07584376 -0.3366007 -0.40738988
0002c0 88 78 b2 3e 1c 4d c6 3e a6 25 02 3f a1 5f dc 3d
       0.34857583 0.38730705 0.50838697 0.10760427
0002d0 4e 27 58 3e b2 c3 aa 3d 31 a9 8a 3e bb 34 0b 3f
       0.21108744 0.08338107 0.27082208 0.54377335
0002e0 4c 04 c4 3e be 30 49 be da 1f b4 be 31 c2 43 3e
       0.38284528 -0.196475 -0.3518055 0.19117047
0002f0 49 59 59 be 76 d0 5f bd b5 55 4f 3e 9f 45 d4 3b
       -0.21225466 -0.054642163 0.20247538 0.006478026
000300 36 2f f8 3e 0e 2e 38 be 5d 19 96 be 66 26 77 3d
       0.4847352 -0.17986318 -0.29316226 0.060339354
000310 45 ef 01 3e 8c 4f c3 be 9d 8b 1c be 0b 44 4f 3e
       0.1268893 -0.38146627 -0.15287633 0.202408

running_mean f4 [200]
000000 ab d0 1c 3f 14 77 65 3f c8 01 f8 3d b9 1e 11 3f
       0.612559 0.89634824 0.12109715 0.56687504
000010 dd 78 1b 3e c4 d3 5b 3e 0b fa fa 3e f1 36 a4 3e
       0.15182824 0.21467501 0.49018893 0.32073167
000020 90 67 6c 3f 0b 40 17 3f 3d 15 c0 3e 90 f7 11 3e
       0.92345524 0.59082097 0.37516204 0.14254594
000030 6c 13 d9 3e 31 12 67 3e 5c 98 10 3f f9 ed 66 3e
       0.4239763 0.22565533 0.5648248 0.22551717
000040 26 50 fb 3e 10 5f 7c 3e 32 c9 6c 3f 9e 63 3a 3e
       0.49084586 0.24645638 0.924945 0.18202063
000050 37 6c bb 3e 4c 68 ad 3e b5 3d 3c 3f 2f f5 95 3e
       0.36606 0.33868635 0.7353166 0.29288623
000060 53 f6 81 3f 2b 5e 68 3f 73 58 1e 3f a3 b1 df 3e
       1.0153297 0.9076869 0.6185371 0.43690214
000070 7c f5 2e 3f 25 0f 4f 3f f1 fd f3 3d 5c e5 0e 3f
       0.6834333 0.80882484 0.1191367 0.55818725
000080 60 5d 65 3e d4 5e 98 3f 28 18 bb 3e 50 02 af 3f
       0.22398901 1.1903939 0.36541867 1.3672581
000090 04 85 df 3e b1 9a 50 3e eb 8a a8 3e d7 4d 76 3f
       0.4365617 0.2037151 0.32918486 0.96212524
0000a0 c4 d9 de 3d c3 6a 31 3d 95 56 89 3e ab f2 e8 3e
       0.10881379 0.043314707 0.2682387 0.4549764
0000b0 76 7e a0 3e 26 c2 84 3e 6a f1 0c 3e d7 f3 af 3e
       0.31346482 0.25929374 0.13763967 0.34365723
0000c0 92 a2 9e 3f 37 61 16 3e a6 f6 cb 3d 15 ad ad 3f
       1.2393363 0.14685522 0.09959154 1.3568445
0000d0 9d e5 38 3e de 2f 50 3f 5f e9 22 3e c4 94 5f 3e
       0.1805634 0.8132304 0.15909337 0.21834093
0000e0 b8 fa 83 3e d6 35 ba 3e 8f fb 88 3e 9e b7 03 3f
       0.2577722 0.363692 0.26754424 0.5145205
0000f0 83 d0 d4 3e d1 e0 c0 3e 67 24 c1 3d af 56 58 3f
       0.41565332 0.3767152 0.09430771 0.8450727
000100 54 aa db 3e 4f dd 87 3e 9d f7 0b 3f 41 ab 0e 3e
       0.42903388 0.26536033 0.546747 0.13932516
000110 98 74 7a 3d 16 ad 3f 3f c8 b6 b4 3d 93 6e 82 3e
       0.06114635 0.74873483 0.08823925 0.25474986
000120 bf 92 8e 3e 65 94 16 3f dc 25 87 3d 7f c3 f7 3d
       0.27846333 0.5882018 0.06599018 0.12097835
000130 e2 5e 51 3f 7a ca 45 3f f9 52 f7 3e c2 75 0f 3d
       0.81785405 0.7726208 0.4830549 0.035024412
000140 f7 0d 94 3f be c2 83 3f 83 4f 8e 3f 10 ad 14 3f
       1.1566762 1.0293806 1.1118015 0.5807657
000150 c5 88 3e 3e b1 3a 11 3e 98 f6 bb 3e 83 31 45 3f
       0.18606861 0.14182545 0.36711574 0.77028674
000160 d5 a8 f9 3d cb 41 9c 3e 41 ba a4 3e ed e0 4c 3f
       0.12190405 0.30518946 0.3217335 0.8003071
000170 6f 1f 92 3f ef 07 3c 3e ef d9 ff 3e 2d 55 aa 3e
       1.1415843 0.18362401 0.49970958 0.3326811
000180 60 78 88 3e 6c a1 8b 3f 62 43 e3 3e 4a f4 da 3e
       0.2665434 1.0908637 0.44387347 0.42764503
000190 f8 18 9d 3d 0d d3 33 3b d6 4f c7 3e 4e 35 91 3e
       0.07670778 0.0027439028 0.38928097 0.2836098
0001a0 d4 03 85 3e d4 7f 00 3e 8d fd 40 3e a3 2c 88 3e
       0.25979483 0.12548763 0.18846722 0.26596555
0001b0 97 3b 34 3f ad 3c 8d 3f d9 e0 b8 3e 98 d5 2b 3e
       0.70403427 1.1034142 0.36109045 0.16780698
0001c0 39 b2 9e 3f 7f 38 11 3d 96 dd 31 3f 72 68 eb 3e
       1.2398139 0.03545427 0.6947874 0.45978123
0001d0 8e 99 6b 3f 90 16 7b 3e 0a b2 a9 3e 59 49 0d 3e
       0.9203118 0.24520326 0.33143646 0.13797511
0001e0 79 63 28 3e 7e f6 88 3f 87 70 c6 3c fc f9 d7 3d
       0.16444196 1.0700223 0.02422358 0.105457276
0001f0 b0 7c 04 3f a9 63 8d 3d 5d be 57 3f eb 2b 78 3d
       0.5175276 0.06903774 0.84274846 0.06058876
000200 16 86 99 3e f5 b4 32 3e 42 96 a4 3f 25 8e 95 3d
       0.29985112 0.17451842 1.2858355 0.073025025
000210 82 d9 0f 3e 8e 30 2b 3e 4a be 93 3e 80 fe 95 3e
       0.14047816 0.16717741 0.28856117 0.2929573
000220 a8 3e 3a 3e 63 65 7a 3e 3b 5b e4 3d 6d ec b5 3d
       0.18187964 0.24452738 0.11150213 0.08882985
000230 0c 44 11 3f 19 a3 f6 3d 56 3b 38 3e c2 f1 9e 3f
       0.56744456 0.12042827 0.17991385 1.2417529
000240 5e e2 0f 3e e0 3d 00 3f 8c a2 19 3d eb 0c 96 3e
       0.14051196 0.50094414 0.037508532 0.2930673
000250 77 72 c0 3e a7 cd dc 3e eb 67 8d 3e e4 32 ce 3d
       0.3758733 0.4312565 0.27618346 0.100683
000260 52 c6 8b 3d f4 f3 bc 3e 22 65 80 3e 6b 52 76 3d
       0.06824936 0.3690487 0.25077158 0.060137194
000270 f3 77 8b 3e bc fb 24 3e 7b 6a 26 3d 6f 67 d2 3e
       0.27239951 0.16111654 0.04062889 0.4109454
000280 ef c9 81 3d 5e 69 47 3e 98 ea ce 3e 99 d4 94 3e
       0.06337344 0.19473788 0.40413356 0.2906845
000290 4c 74 c1 3e b2 11 83 3f e7 79 51 3e 8c 98 09 3e
       0.3778404 1.0239775 0.20456658 0.13437098
0002a0 9c 1c 7c 3e 47 fc 81 3d 95 0e 79 3e 54 b4 0b 3f
       0.24620289 0.06346946 0.24321969 0.54572034
0002b0 e3 c2 35 3e 84 c3 42 3f 53 b3 b2 3c a0 40 69 3e
       0.17750125 0.76079583 0.021814024 0.22778559
0002c0 97 35 94 3e bc 91 59 3f 18 07 3e 3f e2 29 8a 3f
       0.28947136 0.84988 0.74229574 1.0794032
0002d0 74 fa a5 3e 39 6a 30 3f ef 36 b7 3e 9c a7 ca 3d
       0.32417643 0.6891208 0.35784099 0.0989525
0002e0 8b 5e 03 3f 92 e8 b0 3c 70 03 1c 3f 21 e4 c0 3e
       0.51316136 0.021595273 0.60942745 0.3767405
0002f0 62 84 99 3e 7d e6 75 3e 9d 62 60 3e 65 3c ff 3e
       0.29983813 0.24013706 0.21912618 0.49850765
000300 0a b7 6f 3d 45 40 e7 3e 78 96 1e 3d 0f 3b 2d 3f
       0.05852417 0.4516622 0.038717717 0.6766824
000310 2f 42 e4 3e 1e 73 29 3f 91 fe bf 3e 14 ab 92 3e
       0.44581744 0.6619128 0.37498906 0.28646147

running_var f4 [200]
000000 2f 3d 12 3f 14 82 68 3f 74 ec a9 3d 69 f0 09 3f
       0.5712461 0.90823483 0.08297053 0.5388246
000010 84 96 10 3e 35 51 70 3e 4b 31 b5 3e d1 ae ee 3e
       0.14119917 0.23468478 0.3538917 0.4661775
000020 75 e6 3d 3f 3a 2a 28 3f 76 f0 da 3e 8a 6d 0e 3e
       0.74179775 0.6568943 0.42761582 0.13908973
000030 f4 d2 9c 3e 9e 83 8f 3e 9c 73 22 3f e7 c7 8e 3e
       0.30629694 0.28030103 0.63457656 0.27886888
000040 ac 8e c4 3e 46 57 b3 3e 8b 34 b8 3f 79 04 58 3e
       0.383901 0.35027522 1.4391035 0.21095456
000050 de 72 04 3f c6 8f fe 3e 0a 2c c6 3e 10 8a bc 3e
       0.51737773 0.49719065 0.38705474 0.36824083
000060 4e af 57 3f 2e f5 27 3f ff 4c e8 3e 26 3c e4 3e
       0.8425187 0.6560849 0.45371243 0.4457714
000070 91 2a 32 3f 70 1f 57 3f ac 73 f7 3d 96 5a 0e 3f
       0.695962 0.84032345 0.120826095 0.55606973
000080 6f 93 89 3e 3d 40 8a 3f d4 bd 85 3e 8a 66 a8 3f
       0.26870295 1.0800854 0.2612139 1.3156292
000090 70 14 80 3e 80 93 59 3e 78 d8 51 3e fa e4 76 3f
       0.25015593 0.21247673 0.20492733 0.9644314
0000a0 38 59 13 3e 44 0a d8 3c 39 53 78 3e 36 19 d1 3e
       0.14389503 0.026372083 0.24250497 0.40839547
0000b0 bc 04 ea 3e 58 50 e8 3e 21 70 fa 3d 27 45 f7 3e
       0.45706737 0.45373797 0.12228418 0.48294947
0000c0 2e 80 86 3f 5e 0a bd 3d 43 25 88 3d e1 c8 49 40
       1.0507867 0.09230493 0.06647732 3.1528857
0000d0 06 6e 4a 3e 09 a8 17 3f ef e8 3b 3e 7d 60 73 3e
       0.19768533 0.59240776 0.18350576 0.23767276
0000e0 03 0a 52 3e 15 47 d9 3e 21 bd 40 3e dc c8 f6 3e
       0.20511632 0.42437044 0.18822147 0.4820012
0000f0 81 24 b2 3e d0 55 58 3e 81 b8 52 3d 5d 12 76 3f
       0.34793475 0.21126485 0.051445488 0.9612177
000100 ee 40 be 3e 53 6f b0 3e 72 05 4c 3f fe 2d 31 3e
       0.37158912 0.34459934 0.7969581 0.17302701
000110 79 e6 60 3d 01 44 9a 3f 96 83 9d 3d 51 61 ac 3e
       0.054907296 1.2052003 0.07691114 0.33667997
000120 99 0e a8 3e b6 da f3 3e 9e ce 6a 3d fd e5 8a 3d
       0.32823637 0.476278 0.05732595 0.06782148
000130 99 ad 1c 3f 7b 65 3c 3f aa 2e e9 3e 83 ea c6 3c
       0.6120239 0.73592347 0.45543414 0.024281746
000140 4f d5 9d 3f 7d e9 93 3f f0 e5 80 3f bc 49 32 3f
       1.2330722 1.155563 1.0070171 0.6964376
000150 9c 7e 0c 3e e4 f3 19 3e 75 04 91 3e 8a f1 34 3f
       0.13720173 0.15034443 0.28323713 0.7068106
000160 77 09 b4 3d 2b 7a ce 3e 5b 03 d8 3e 90 0b c2 3e
       0.08790868 0.40327582 0.4219006 0.37899446
000170 6d df 88 3f bf c0 57 3e 94 9b 0c 3f d5 3c 0d 3f
       1.0693184 0.2106962 0.54924893 0.5517095
000180 0d d5 58 3e 0b 32 b9 3f 59 ab f4 3e 66 d8 04 3f
       0.21175022 1.4468397 0.47786978 0.518927
000190 44 5e 36 3d 5e d9 85 3a 92 09 57 3e e2 42 b7 3e
       0.044523492 0.0010211875 0.20999745 0.35793215
0001a0 0d c4 b1 3e f6 b4 d6 3d d2 81 18 3e cc 07 7b 3e
       0.34719887 0.10483734 0.14893273 0.24514693
0001b0 c4 7b ea 3e 44 05 90 3f ec 61 b1 3e af 1f 22 3e
       0.4579755 1.1251607 0.3464502 0.15832399
0001c0 96 90 90 3f 95 0e 79 3d 08 e1 14 3f 75 2d d4 3e
       1.1294124 0.060804922 0.5815587 0.4144093
0001d0 d1 75 c1 3f fe 37 00 3e 77 c2 4f 3e 14 52 01 3e
       1.511408 0.1252136 0.20289026 0.12628967
0001e0 94 32 4b 3e 79 70 c1 3f 46 be 34 3c 61 e5 97 3d
       0.19843513 1.5112449 0.011031693 0.074167974
0001f0 65 3c 15 3f 62 4e 55 3d da 5e d6 3e 48 3e 36 3d
       0.5829528 0.052076705 0.4186924 0.04449299
000200 42 f2 e0 3e 5d de 1b 3e a8 33 cb 3f 9d 40 80 3d
       0.43934828 0.15221544 1.5875139 0.06262324
000210 02 c9 83 3d a7 f3 03 3e 1c c7 85 3e 61 8d cb 3e
       0.064348236 0.12885915 0.2612847 0.397563
000220 7c 20 e4 3d fb 30 2e 3e b2 50 b1 3d d3 84 67 3d
       0.111390084 0.17010872 0.086579695 0.056523155
000230 c3 1a 01 3f 88 30 bf 3d 4b 67 3f 3e 76 e2 7f 3f
       0.5043146 0.093354285 0.18691747 0.99954927
000240 81 92 92 3e eb 12 08 3f a4 06 f5 3c 69 7c eb 3e
       0.286274 0.53153867 0.029910393 0.45993355
000250 b8 4d f3 3e 1f 51 aa 3e 7b fd 3d 3e 2c be ad 3d
       0.47520232 0.33265015 0.18553726 0.08483538
000260 2e 9a 23 3d 95 94 00 3f bd a0 93 3e 52 c4 d1 3c
       0.03994196 0.5022672 0.2883357 0.025606308
000270 6a 18 a8 3e c3 8b c4 3d 36 cf c5 3c 3e 98 e5 3e
       0.32831126 0.0959697 0.024146657 0.44842714
000280 3a 72 be 3c 5f ec 6e 3e b1 6e 10 3f f9 16 cf 3e
       0.023247827 0.23332356 0.564189 0.40447214
000290 80 14 00 3f ff 1e 83 3f 1d 6d 8d 3e 67 3e ed 3d
       0.5003128 1.0243834 0.2762231 0.11584168
0002a0 81 be 85 3e 91 a9 3a 3d 1b 18 af 3e 7b 9e d6 3e
       0.26121905 0.045571867 0.3419808 0.41917786
0002b0 31 eb 14 3e 05 64 66 3f f9 4f 2e 3c 36 b9 93 3e
       0.14542843 0.8999637 0.010639184 0.28852242
0002c0 b4 d4 68 3e ee 6d 2a 3f ac dc f8 3e 57 0b 8c 3f
       0.2273739 0.6657399 0.4860586 1.0940961
0002d0 a5 2d e9 3e a5 b0 1f 3f a3 1d e5 3e 8b 96 e4 3d
       0.45542637 0.62378913 0.44749174 0.11161526
0002e0 c8 cf 56 3f fc 32 60 3c 15 ea f6 3e 49 78 90 3e
       0.839108 0.013684031 0.48225465 0.2821677
0002f0 46 da 7a 3e 57 6c 9e 3e 9f de 59 3e 16 aa a7 3e
       0.24497327 0.30942032 0.2127633 0.32746953
000300 f8 95 2d 3d 77 18 1c 3f 09 fd be 3c 1f 5f 21 3f
       0.04237935 0.6097483 0.023314016 0.6303577
000310 90 fe 2b 3f 94 06 f0 3e 3e 72 1f 3f 32 d2 c9 3e
       0.67185307 0.4688002 0.62283695 0.3941818

weight f4 [100, 200]
000000 39 19 5f 3e 4b f9 33 3e 63 da c0 3d 8e 4b 23 3d
       0.21786965 0.17575566 0.09416654 0.039866976
000010 92 af 3d 3d c3 ef b1 3d 56 23 bc 3c ba a2 25 bd
       0.046310015 0.08688309 0.022966068 -0.04043839
000020 3c b7 ec 3d d5 8e d5 3d 9e 33 f0 3d 26 42 06 bd
       0.11558387 0.10427634 0.11728595 -0.032777928
000030 ef e3 84 bb 14 2c 4b 3d 93 08 ce 3d 46 ee 55 3d
       -0.004055492 0.049602583 0.10060229 0.05222919
000040 01 0a f2 bc 15 32 36 3e 91 d0 a8 3d 6e 2f 81 3b
       -0.029545786 0.17792542 0.08242906 0.0039424216
000050 82 c2 a5 3d e1 fc 1d 3e fc 2d 7d 3e e4 2b 6f 3d
       0.0809374 0.15428497 0.24724573 0.058391467
000060 9c 00 81 3e 9d 1e 87 3e ca 01 13 3e 63 61 9b 3b
       0.25195777 0.26390544 0.14356151 0.004741834
000070 09 b3 25 3d 04 18 0c 3d e0 a5 99 3d f4 68 24 bc
       0.040453944 0.03420259 0.07502341 -0.010034788
000080 b4 c6 81 3d 5e da 07 3d 54 9a 22 3a d7 ed e3 3d
       0.06336728 0.033167236 0.0006202806 0.11129349
000090 43 6b 81 3e d8 df f2 3d 8b af a3 3d 4e 88 bf 3d
       0.25277147 0.11859101 0.079924665 0.0935217
0000a0 de c8 48 bb 3f 9b 7e 3d 34 d0 21 3e 2b b5 aa 3d
       -0.0030637304 0.062159773 0.1580208 0.08335336
0000b0 fa a3 b2 3c 46 0a b5 3d 36 7c ae 3c b3 76 aa bc
       0.021806706 0.0883985 0.021299463 -0.020808553
0000c0 51 bb a4 3d 22 61 1c 3c 07 ff 85 3c f7 1a 59 3d
       0.0804354 0.009544643 0.016356958 0.05300423
0000d0 4a 4d f2 3c 04 24 e2 bc f5 11 5c bc a6 0e 18 3e
       0.02957787 -0.027605064 -0.013432016 0.14849338
0000e0 7c e0 05 3e 3c 81 8e 3d 19 60 d7 3d 23 5d 43 3e
       0.13073915 0.06958243 0.10516376 0.19078498
0000f0 84 56 bf 3d 19 4d 2f 3c 3b e7 b2 3d 98 d2 bf 3d
       0.093426734 0.010699534 0.0873551 0.093663394
000100 9d 8b a3 3d 47 44 1c 3b 71 81 8b 3e 18 3a 4a 3e
       0.079856135 0.0023844407 0.27247193 0.19748724
000110 24 6c c8 3d 38 67 15 3d 81 e0 19 bd 29 6c 73 bb
       0.09786251 0.03647539 -0.03756762 -0.0037143326
000120 2e 09 ed 3d 09 8d be 3b 64 4a 95 3d cc 30 ec 3d
       0.115740165 0.0058151525 0.072895795 0.11532745
000130 71 ef 11 3e bf 44 1f 3e 55 d2 11 3d 8d 90 50 3d
       0.14251496 0.15553568 0.03560098 0.050919104
000140 03 64 28 bb 4d 91 d7 3c 9e 24 01 3e 5c 97 c8 3d
       -0.0025694377 0.026314402 0.12611625 0.097944945
000150 3f 01 da 3d 00 24 0e 3d a4 67 72 3d c4 4a 0d 3c
       0.10644769 0.0347023 0.05918087 0.008623783
000160 dd c6 ff 3d 2c ee e7 bc 0d 91 43 3d 24 f8 92 3d
       0.12489102 -0.028311811 0.047745753 0.07176235
000170 81 a2 d8 3d 8b 8a 6a 3c fa cd c4 3d 9e 77 1b 3d
       0.1057787 0.014315258 0.096095994 0.037955873
000180 4c 98 2e 3e 36 a3 5d bb 60 7b de 3d 65 77 ae bc
       0.17050284 -0.0033819205 0.10863376 -0.021297166
000190 b1 84 8a 3c 17 8c 12 3d ae 21 fa 3d c3 fd 0a 3e
       0.016908975 0.03577813 0.12213455 0.13573365
0001a0 08 6f 12 3d 25 c0 c6 3d 63 c0 51 3c b1 e6 4f bd
       0.03575042 0.097046174 0.012802216 -0.050757114
0001b0 ca 3b cc 3c 73 d3 e8 3c 54 6b b0 3a a1 dd de 3d
       0.024930853 0.02842114 0.0013459721 0.10882116
0001c0 cd 4b 1f 3e 71 59 8b 3c c1 5a 31 3e 2a 01 40 bc
       0.1555626 0.017010422 0.17319776 -0.0117190275
0001d0 a8 45 fe 3d e4 43 b0 3d 0a a0 94 bd 8a 09 9f 3d
       0.124156296 0.08606699 -0.072570875 0.07765491
0001e0 fa b1 41 3e 08 45 10 3c 0a 7d 82 3d 5f 6f c4 bd
       0.18915549 0.008805521 0.063715056 -0.09591555
0001f0 f0 69 18 3e 82 22 88 bd 8f 05 df 3d 8b 9d 36 bb
       0.14884162 -0.06647207 0.10889732 -0.00278649
000200 54 df 91 3d 58 ba bd 3d 64 0d 0f bd f5 51 f0 3d
       0.071226746 0.09264058 -0.03492488 0.11734382
000210 b5 cd 1a 3e bf 28 a8 bc d1 de eb 3d 33 8a aa 3d
       0.15117534 -0.020527242 0.11517108 0.08327141
000220 57 ee 21 bd 18 93 5f 3d 9d bc 9e 3d 20 b5 13 3e
       -0.03953394 0.05458364 0.07750819 0.14424562
000230 d2 20 eb 3c 3e e3 47 3d bd 1e 19 be b0 54 d4 3d
       0.028702173 0.0488007 -0.14953132 0.10367715
000240 0a 74 9c 3c 57 f0 37 bd c0 c3 a3 3d 0a a1 d8 3d
       0.0190983 -0.04490694 0.07996321 0.10577591
000250 97 8b 2d 3d 6e 96 1a 3e a6 14 cc 3d 77 8a a5 3d
       0.04236945 0.15096447 0.09964876 0.08083051
000260 a9 df 82 bb cd 54 0a 39 8c 96 0b bd 52 aa 76 3d
       -0.0039939475 0.00013192296 -0.03407912 0.060221024
000270 1e 1c 01 3d 96 1b 66 bb d4 82 b6 3c 2d a2 0e 3e
       0.031520955 -0.0035111657 0.02227918 0.13929053
000280 20 f9 b8 3d c5 54 21 3e de 5a f5 3d 56 a2 82 bc
       0.09031892 0.15754993 0.11980222 -0.015946548
000290 38 61 22 bd 54 81 8a 3e 5a 7b a3 3d 15 f0 40 3b
       -0.039643496 0.27051795 0.07982512 0.0029439975
0002a0 ed f0 43 3d 41 7c ef 3c fe f0 05 3e a9 9f 23 3e
       0.047837187 0.029234054 0.13080212 0.15978874
0002b0 60 c4 8b bd 91 8e ef 3d d3 b6 28 3e 29 20 b9 bb
       -0.06824565 0.11697114 0.16475992 -0.0056495857
0002c0 bc 3b 52 3d 8d 27 bd 3c 3b 96 dc 3d 42 ad 96 3b
       0.0513265 0.023090148 0.10770842 0.0045982907
0002d0 ee 86 97 3d 43 b9 61 bc 8c 96 30 bd ff ba 46 3d
       0.07398783 -0.01377708 -0.043112323 0.048518177
0002e0 86 ed cd bd 10 4c 00 3c 84 3c 1a 3d df 1e 7e 3c
       -0.100550696 0.007830635 0.03765537 0.01551029
0002f0 6b a1 fa 3c 96 1f 6e bb 1c bc 08 3e e0 77 7c 3e
       0.030594548 -0.0036334745 0.13353008 0.24655104
000300 a7 ee 6a 3e 49 91 12 bd 78 de 36 bd 5d ea 4d 3d
       0.22942601 -0.035783086 -0.044645756 0.050272334
000310 6c 8f 17 3d 4b 3d bd 3c 68 b2 22 3b 69 69 15 3e
       0.037002012 0.023100516 0.0024825577 0.14590992
000320 a6 e5 bb 3d 0a 50 04 3c 0f ee 0c 3d 57 27 12 3d
       0.09174661 0.008075723 0.034406718 0.03568205
000330 67 d0 b7 3a 3b 16 8c 3c ae 6c 8d bc c7 18 6e bd
       0.0014023901 0.017100444 -0.017263737 -0.0581291
000340 fb b2 b0 3d 79 14 68 3e 32 73 eb 3b b5 e6 97 3b
       0.08627888 0.2266406 0.007185363 0.0046356567
000350 d3 dd 01 be 7e c3 2d bd e0 0c 0f ba b1 af b0 bc
       -0.12682275 -0.042422764 -0.00054569356 -0.021568151
000360 18 38 be bd 6b 87 ca ba a7 ae c3 3d 46 0d 2a bd
       -0.09288043 -0.0015451735 0.09554797 -0.041516565
000370 6c dd 91 bd 50 2b 71 bd 91 7e 87 3d f5 94 21 3d
       -0.07122311 -0.058879197 0.066159375 0.039448697
000380 78 e9 84 3e 06 ad a5 3c 62 70 90 3d 5a 43 c9 3b
       0.25959373 0.020224106 0.07052685 0.006142062
000390 44 9e 0d 3e c5 3f 9e bc c5 44 a0 bd 18 b8 01 be
       0.13829905 -0.019317517 -0.07825617 -0.12667882
0003a0 e1 91 6e 39 a0 d4 9d 3d bc 9a 6a bc 64 1b 98 3d
       0.00022751793 0.077065706 -0.014319118 0.07427099
0003b0 63 e2 f8 3d 3d c6 b6 3b 8c c7 2b bc ca 4f 2b 3d
       0.12152555 0.005577831 -0.010484587 0.04182414
0003c0 49 3a 9d bc 1c 19 ce 3c 14 cb f2 bd 24 67 d8 bc
       -0.019192832 0.025158457 -0.1185514 -0.026416369
0003d0 c7 75 b6 bc 41 29 04 bd f9 e3 df 3c b2 cc 1e bd
       -0.022272957 -0.032265905 0.027330386 -0.03876943
0003e0 7d 91 8a bd e3 a3 a0 3d 53 f5 0f bc c5 a8 23 3e
       -0.06766031 0.07843759 -0.008786517 0.15982349
0003f0 2a 9c 87 3d d3 85 8c bd fa 38 89 bd b7 15 c4 bd
       0.06621583 -0.068614624 -0.067003205 -0.09574454

weight f4 [100]
000000 7e 7c 5d 3f a0 d2 6a 3f 40 87 2e 3f bd f9 31 3f
       0.86518085 0.9172764 0.68175125 0.69521695
000010 2f 4e 2e 3f 30 2f 3a 3f db 4b e3 3e 57 be 3c 3f
       0.6808805 0.7272825 0.4439381 0.73727936
000020 12 f3 5b 3f 29 86 65 3f 88 2a ed 3e 25 1b 05 3f
       0.8591777 0.8965784 0.4632151 0.51994544
000030 db 2c 42 3f d0 63 1c 3f 9f e8 27 3f 68 bd 36 3f
       0.75849694 0.610898 0.65589327 0.7138276
000040 96 a2 22 3f 3e d7 13 3f ba 2d 47 3f 8e 89 72 3f
       0.63529336 0.5775031 0.7780415 0.9474114
000050 fc 07 af 3e f2 04 43 3f c4 48 2b 3f 53 5a 3a 3f
       0.3418578 0.7617942 0.66907907 0.72794074
000060 d8 9c 3e 3f c0 d9 5d 3f 3e 90 4e 3f 91 a2 1b 3f
       0.74458075 0.86660385 0.80688846 0.6079493
000070 0e f8 6c 3f b9 b2 8b 3e e0 b0 7a 3f e5 53 2f 3f
       0.92566 0.27284792 0.9792614 0.6848739
000080 65 f5 d9 3e a6 4c 60 3f a2 9b 0f 3f 04 91 52 3f
       0.42570034 0.87616956 0.5609685 0.82252526
000090 57 73 5b 3f 66 e0 23 3f 92 a4 51 3f df 82 30 3f
       0.8572287 0.6401428 0.8189174 0.68949693
0000a0 1f 5f 5f 3f e5 2c 53 3f 59 ee 30 3f 9d cd 4f 3f
       0.8725452 0.8249038 0.6911369 0.81173116
0000b0 c5 06 4e 3f 86 e4 5c 3f 2c 67 3a 3f f5 48 45 3f
       0.8047908 0.862862 0.7281368 0.7706445
0000c0 b0 33 71 3f bd 7c 48 3f be d6 46 3f c4 9d 3e 3f
       0.94219494 0.78315336 0.7767142 0.7445948
0000d0 b7 cd 40 3f ed 5c 69 3f aa 56 45 3f bc 77 41 3f
       0.75313896 0.9115742 0.77085364 0.75573325
0000e0 6b cf 13 3f 7a de 3b 3f d5 bf 34 3f bd f4 2a 3f
       0.5773837 0.7338635 0.7060521 0.6677969
0000f0 27 00 31 3f 64 96 3c 3f c6 e2 20 3f f4 30 6b 3f
       0.6914086 0.7366698 0.6284603 0.9187157
000100 f7 68 09 3f d7 ec 48 3f c3 91 29 3f 78 e3 33 3f
       0.5367579 0.7848639 0.6623804 0.70268965
000110 2b 87 67 3f 42 bf 2c 3f 7d af 15 3f 3b 7f 69 3f
       0.90440625 0.67479336 0.584709 0.91209763
000120 26 81 58 3f 8d da 3c 3f d1 05 36 3f a9 72 59 3f
       0.84572065 0.7377098 0.71102625 0.8494058
000130 0a 08 fd 3e 3f be 71 3f 95 06 36 3f 85 89 72 3f
       0.49420196 0.9443092 0.71103793 0.9474109
000140 74 65 45 3f 28 b5 31 3f 0a 40 24 3f 5a 50 fb 3e
       0.7710793 0.6941705 0.64160216 0.4908474
000150 ef cb 1c 3f 60 a9 22 3f 2e d1 6f 3f 57 78 26 3f
       0.6124868 0.63539696 0.9367856 0.65027374
000160 ff 3a 25 3f cd 8e 2c 3f 13 f7 0c 3f f9 d3 72 3f
       0.64543146 0.67405397 0.55064505 0.94854695
000170 0a 60 31 3f 1c 34 67 3f bb 1f 23 3f e5 90 3a 3f
       0.6928717 0.9031389 0.6372029 0.7287734
000180 af 1e 39 3f 7d 9a 66 3f e5 3d 37 3f 85 1e 32 3f
       0.72312444 0.9007948 0.7157882 0.6957782

bias f4 [100]
000000 77 49 84 3e 0e cc a0 3e d4 dd a4 be 08 75 af be
       0.258373 0.3140568 -0.3220049 -0.34268975
000010 db 39 8c 3e e5 85 0f bf 6c b6 7e bd ba d6 21 bf
       0.2738789 -0.5606368 -0.06218569 -0.6321827
000020 fa cd f4 3e 72 80 a9 3e 47 ff a3 3d a5 89 32 3e
       0.47813398 0.33105808 0.08007675 0.1743532
000030 2a fd 2b bf f2 5a ad be b9 7e df 3d 2c ba 2c be
       -0.6718317 -0.33858448 0.10912842 -0.16867894
000040 ed 6a 5e bd ca bf 0a be 51 67 18 bf e7 9c f7 3e
       -0.05430119 -0.13549724 -0.5953265 0.48361894
000050 59 9b 21 bd eb 36 6f 3e 96 27 e3 bd 12 4a 08 bf
       -0.03945479 0.23360793 -0.11091535 -0.5323802
000060 c4 70 85 be 8a c5 cd 3e 4d 37 c3 be 56 86 0b bf
       -0.26062596 0.40189773 -0.3812813 -0.54501855
000070 31 09 b9 3e f1 53 e0 3c d6 8c 36 3f ff 05 be be
       0.36139825 0.027383776 0.7130865 -0.3711395
000080 61 98 85 3d 48 da e9 be 3d 48 88 be 46 08 b5 3e
       0.065232046 -0.45674348 -0.26617613 0.35357875
000090 e0 24 46 3e 3c b2 41 be ba 0f 9f 3e 59 96 e2 be
       0.19350004 -0.18915647 0.31066686 -0.4425533
0000a0 7e 21 a2 3e 8f b7 91 3e bb 67 df be b3 35 ff bd
       0.31666178 0.28460357 -0.43633828 -0.12461414
0000b0 2c 77 55 3f ac 90 a7 be 52 10 c1 be a2 f3 a2 be
       0.83384967 -0.32727563 -0.37707764 -0.31826502
0000c0 d2 e2 8a 3e 04 36 dc be 7c 7e 21 be 6f 5b 80 be
       0.27126175 -0.4300996 -0.15770906 -0.25069758
0000d0 a0 fd 49 bf 65 c9 9f 3e 1f cf 9a be a0 f4 16 bd
       -0.78902626 0.3120834 -0.30236146 -0.036854386
0000e0 15 8a 8c be 04 28 24 be 75 9c 9d be 65 86 3a bf
       -0.27449098 -0.1603089 -0.3078343 -0.7286132
0000f0 1c 2a f8 be ce d9 83 3e 6e 41 2b bf 56 e6 dd 3e
       -0.48469627 0.2575211 -0.6689671 0.43339795
000100 a9 97 2d 3e cd 79 92 be 8c a3 a8 be 16 0d be 3e
       0.16952385 -0.28608552 -0.32937276 0.3711936
000110 c2 c8 a3 3e 23 57 26 3e 9a 8d 24 3e cf aa 98 3e
       0.31989104 0.16244178 0.16069642 0.29817817
000120 34 8e c6 3e a4 5f 60 be 93 05 bd 3e 40 07 b1 be
       0.38780367 -0.21911484 0.36918315 -0.34575844
000130 35 22 81 be da b4 c9 3e 61 9e 24 3e e4 98 ae 3e
       -0.2522141 0.3939579 0.16076042 0.3410102
000140 13 e6 26 bf 1d a0 2d bf 0f e6 6d 3e 5c d9 9f be
       -0.65194815 -0.6782244 0.23232292 -0.3122052
000150 d7 be cf be 08 f0 f3 be a1 97 a2 3e c8 3a 8c 3e
       -0.40575287 -0.47644067 0.3175631 0.27388597
000160 ab 42 e6 be b8 e3 6c 3e 84 c3 bb be c7 45 21 3f
       -0.4497274 0.23133743 -0.36672604 0.62997097
000170 98 07 9d be bb 86 a1 3e 5c 02 3d 3e c1 1b f4 be
       -0.30669856 0.31548104 0.18457931 -0.47677425
000180 b2 94 c7 be 72 cf c9 3e db db 6c be cc ec 13 bf
       -0.38980633 0.3941608 -0.23130743 -0.577832

running_mean f4 [100]
000000 61 65 b4 3f a2 20 10 40 65 b3 99 3e 1f da 9f 3f
       1.4093438 2.2519917 0.3001968 1.248844
000010 6a 26 d1 3f 20 93 fd 3f d6 06 2c 40 62 2d c2 3e
       1.6339848 1.9810524 2.6879172 0.3792525
000020 2c f0 0b 40 04 a0 0f 40 b0 e0 cb 3f 37 30 d8 3f
       2.186534 2.2441416 1.5927944 1.6889714
000030 e9 7f 3e 40 9b 97 ef 3f ff 68 a6 3f ee 29 44 3f
       2.976557 1.8718141 1.3000792 0.7662648
000040 df aa 1d 3f d5 68 8d 3f 23 f0 17 40 24 7c 0b 40
       0.61588854 1.1047617 2.3740318 2.179452
000050 fd 0c 1e 3f 86 31 c1 3f 1a 03 c0 3e ab 42 60 3f
       0.6173857 1.5093238 0.37502366 0.8760173
000060 29 53 05 3e d6 27 ba 3f 07 ee 66 3e fd a5 1b 40
       0.13020004 1.4543407 0.22551738 2.4320061
000070 a2 01 e4 3f 52 a9 5a 3f 12 55 6f 40 04 77 fc 3e
       1.7812998 0.8541461 3.7395673 0.49309552
000080 87 ef 7f 3f c1 09 f1 3d 5d 9d 9c 3e f5 5d bc 3f
       0.99974865 0.117694385 0.3058881 1.4716173
000090 51 2c 97 3f 79 1e a0 3e 13 0e b2 3f c5 2b 09 40
       1.1810399 0.3127325 1.3910545 2.1432965
0000a0 02 7e 0b 40 b6 d6 b1 3f 83 77 02 3f d9 e9 50 3e
       2.179566 1.389365 0.5096361 0.20401706
0000b0 a0 1b 9c 40 8b 60 46 3f 30 94 dd 3e 7d 75 74 3e
       4.878372 0.7749106 0.4327712 0.23872943
0000c0 e6 1c 97 3f ea 1b 9b 3f 40 fa 47 3e 1b 0f 9d 3e
       1.1805694 1.2117894 0.19529057 0.30675587
0000d0 15 4e 47 40 fb f3 d7 3f b8 d9 95 3f 89 11 36 3e
       3.1141407 1.6871332 1.1707067 0.17780127
0000e0 e9 9f 1d 3f e1 da 27 3f 3e 7d 66 3e 52 5a 0e 40
       0.6157213 0.6556836 0.22508714 2.2242627
0000f0 46 14 56 3f 8f c3 b6 3f dc a7 16 3f cf 4c 16 40
       0.83624685 1.427843 0.58849883 2.348438
000100 1e 2c 42 3f ec 52 16 3f ad 8f e9 3f 34 04 da 3f
       0.7584857 0.5872028 1.8246971 1.7032533
000110 97 18 be 3f f6 64 d4 3e ff b9 92 3f e9 2b a3 3f
       1.4851254 0.41483277 1.1463012 1.2747775
000120 e5 1b 02 40 93 39 7a 3f 54 71 96 3f e0 e9 30 3f
       2.0329525 0.977441 1.1753335 0.69106865
000130 02 60 5a 3f 6f d1 dd 3f a8 f9 bf 3f 01 ed db 3f
       0.85302746 1.7329539 1.4998064 1.7181703
000140 df 71 26 40 a2 85 4e 3f b2 7f b8 3f 86 0a 18 3f
       2.6007001 0.8067266 1.441397 0.5939106
000150 e7 3f 67 3f 8d cd e5 3e 0d 3b 49 3f af ea b1 3f
       0.9033188 0.44883385 0.7860573 1.3899745
000160 be c9 c7 3f 56 c0 bf 3f 35 aa 9b 3f ef 07 5f 40
       1.5608442 1.4980571 1.2161318 3.4848592
000170 06 03 87 3f be 47 bb 3f 2b a2 e3 3f 55 8d a8 3e
       1.0547798 1.4631269 1.7783865 0.32920328
000180 b9 39 68 3f 87 10 fa 3f 09 1d ed 3e 67 31 c8 3f
       0.9071308 1.9536294 0.46311215 1.5640076

running_var f4 [100]
000000 77 f4 a9 40 a5 8c 53 41 70 74 20 3f 2e 2a 18 41
       5.311092 13.221837 0.6267767 9.510298
000010 ff b5 80 40 5d 7b 9f 41 6e f7 f8 40 0f ed 85 3f
       4.0222163 19.935236 7.780204 1.046297
000020 7b 3e 6f 40 66 61 db 40 9f 83 39 41 92 70 13 40
       3.7381885 6.8556395 11.594634 2.3037457
000030 3e d7 e1 41 66 76 69 41 b1 94 bc 40 5b 64 41 40
       28.230099 14.591406 5.893151 3.0217502
000040 03 e9 f4 3f cf 82 7e 40 1b 34 aa 41 87 7a 1c 41
       1.913361 3.976734 21.275442 9.779914
000050 32 5d 0f 40 89 8f 8c 40 ca 82 92 3f 65 6c c5 40
       2.2400632 4.3925214 1.1446164 6.1694818
000060 56 cf 83 3e 9b 58 ed 40 25 77 8a 3f 32 d8 10 42
       0.25744122 7.417066 1.081761 36.21113
000070 57 b1 20 41 80 53 9e 40 fd b0 51 41 e5 03 e8 3f
       10.043296 4.947693 13.10571 1.8126189
000080 e9 80 bd 40 25 95 9c 3e a8 65 1e 3f 76 72 40 40
       5.921986 0.30582538 0.61873865 3.0069861
000090 76 6e 11 40 15 5f 2f 3f 6f d1 ae 40 55 6a ac 41
       2.272367 0.6850446 5.4630656 21.55192
0000a0 56 e1 2b 41 7d 88 93 40 c3 68 1e 40 14 4f cb 3e
       10.742514 4.610411 2.4751441 0.3970877
0000b0 bf 0e 8b 41 48 bc 9c 40 d8 ab 10 40 1e f6 2e 3f
       17.3822 4.8979836 2.2604885 0.68344295
0000c0 ea d6 46 40 79 ad b5 40 4f 2d cb 3e c8 c2 ab 3f
       3.1068673 5.677426 0.39683005 1.3418818
0000d0 a5 6d ef 41 5e 59 cb 40 98 77 b8 40 39 d3 e6 3e
       29.928537 6.354659 5.764599 0.45083025
0000e0 bb 84 2e 40 ff 84 39 40 60 6e 09 3f 1b 96 ac 41
       2.7268512 2.8987424 0.53684044 21.573294
0000f0 6c dd 81 40 73 6c aa 40 25 e6 13 40 1d c4 10 41
       4.058279 5.3257384 2.310922 9.047879
000100 f2 bd 34 40 90 9d 2d 40 a0 65 84 41 d7 4a 65 40
       2.8240933 2.7127419 16.549622 3.5826929
000110 28 fe 2c 40 56 72 4f 3f 5f fc 9d 3f 98 16 43 40
       2.7030125 0.8103384 1.2342643 3.048254
000120 40 13 b3 40 85 16 bc 40 6e 51 40 40 a0 cd 6b 40
       5.5961 5.877749 3.00497 3.6844254
000130 b4 21 9e 40 a6 f9 bf 40 e9 51 12 40 e6 31 21 41
       4.941614 5.9992247 2.2862494 10.074682
000140 c0 c1 d3 41 da 9c aa 40 c9 39 c5 3f a7 bd 20 40
       26.469604 5.331647 1.540826 2.5115755
000150 31 a8 b9 40 7e 54 1a 40 c3 77 10 40 08 3c 12 40
       5.801781 2.411407 2.2573097 2.284914
000160 e3 82 37 41 53 2d 28 40 ae 84 ec 40 81 3b d1 41
       11.469455 2.6277664 7.3911963 26.154055
000170 79 79 f9 40 a4 7e ba 40 30 90 05 40 05 41 b4 3f
       7.796078 5.827959 2.0869255 1.4082342
000180 de 1e aa 40 56 c7 c3 40 08 3c ca 3f ee a7 5c 41
       5.316268 6.118083 1.579957 13.790998
